node {
  name: "global_step/Initializer/zeros"
  op: "Const"
  attr {
    key: "_class"
    value {
      list {
        s: "loc:@global_step"
      }
    }
  }
  attr {
    key: "_output_shapes"
    value {
      list {
        shape {
        }
      }
    }
  }
  attr {
    key: "dtype"
    value {
      type: DT_INT64
    }
  }
  attr {
    key: "value"
    value {
      tensor {
        dtype: DT_INT64
        tensor_shape {
        }
        int64_val: 0
      }
    }
  }
}
node {
  name: "global_step"
  op: "VarHandleOp"
  attr {
    key: "_class"
    value {
      list {
        s: "loc:@global_step"
      }
    }
  }
  attr {
    key: "_output_shapes"
    value {
      list {
        shape {
        }
      }
    }
  }
  attr {
    key: "container"
    value {
      s: ""
    }
  }
  attr {
    key: "dtype"
    value {
      type: DT_INT64
    }
  }
  attr {
    key: "shape"
    value {
      shape {
      }
    }
  }
  attr {
    key: "shared_name"
    value {
      s: "global_step"
    }
  }
}
node {
  name: "global_step/IsInitialized/VarIsInitializedOp"
  op: "VarIsInitializedOp"
  input: "global_step"
  attr {
    key: "_output_shapes"
    value {
      list {
        shape {
        }
      }
    }
  }
}
node {
  name: "global_step/Assign"
  op: "AssignVariableOp"
  input: "global_step"
  input: "global_step/Initializer/zeros"
  attr {
    key: "dtype"
    value {
      type: DT_INT64
    }
  }
}
node {
  name: "global_step/Read/ReadVariableOp"
  op: "ReadVariableOp"
  input: "global_step"
  attr {
    key: "_output_shapes"
    value {
      list {
        shape {
        }
      }
    }
  }
  attr {
    key: "dtype"
    value {
      type: DT_INT64
    }
  }
}
node {
  name: "global_step/VarIsInitializedOp"
  op: "VarIsInitializedOp"
  input: "global_step"
  attr {
    key: "_output_shapes"
    value {
      list {
        shape {
        }
      }
    }
  }
}
node {
  name: "global_step/cond"
  op: "If"
  input: "global_step/VarIsInitializedOp"
  input: "global_step"
  input: "global_step/Initializer/zeros"
  attr {
    key: "Tcond"
    value {
      type: DT_BOOL
    }
  }
  attr {
    key: "Tin"
    value {
      list {
        type: DT_RESOURCE
        type: DT_INT64
      }
    }
  }
  attr {
    key: "Tout"
    value {
      list {
        type: DT_INT64
      }
    }
  }
  attr {
    key: "_lower_using_switch_merge"
    value {
      b: true
    }
  }
  attr {
    key: "_output_shapes"
    value {
      list {
        shape {
        }
      }
    }
  }
  attr {
    key: "else_branch"
    value {
      func {
        name: "global_step_cond_false_9778"
      }
    }
  }
  attr {
    key: "output_shapes"
    value {
      list {
        shape {
        }
      }
    }
  }
  attr {
    key: "then_branch"
    value {
      func {
        name: "global_step_cond_true_9777"
      }
    }
  }
}
node {
  name: "global_step/cond/Identity"
  op: "Identity"
  input: "global_step/cond"
  attr {
    key: "T"
    value {
      type: DT_INT64
    }
  }
  attr {
    key: "_output_shapes"
    value {
      list {
        shape {
        }
      }
    }
  }
}
node {
  name: "global_step/add/y"
  op: "Const"
  attr {
    key: "_output_shapes"
    value {
      list {
        shape {
        }
      }
    }
  }
  attr {
    key: "dtype"
    value {
      type: DT_INT64
    }
  }
  attr {
    key: "value"
    value {
      tensor {
        dtype: DT_INT64
        tensor_shape {
        }
        int64_val: 0
      }
    }
  }
}
node {
  name: "global_step/add"
  op: "AddV2"
  input: "global_step/cond/Identity"
  input: "global_step/add/y"
  attr {
    key: "T"
    value {
      type: DT_INT64
    }
  }
  attr {
    key: "_output_shapes"
    value {
      list {
        shape {
        }
      }
    }
  }
}
node {
  name: "normalize_element/component_0"
  op: "Const"
  device: "/device:CPU:0"
  attr {
    key: "_output_shapes"
    value {
      list {
        shape {
          dim {
            size: 655
          }
        }
      }
    }
  }
  attr {
    key: "dtype"
    value {
      type: DT_DOUBLE
    }
  }
  attr {
    key: "value"
    value {
      tensor {
        dtype: DT_DOUBLE
        tensor_shape {
          dim {
            size: 655
          }
        }
        tensor_content: "…"
      }
    }
  }
}
node {
  name: "normalize_element/component_1"
  op: "Const"
  device: "/device:CPU:0"
  attr {
    key: "_output_shapes"
    value {
      list {
        shape {
          dim {
            size: 655
          }
        }
      }
    }
  }
  attr {
    key: "dtype"
    value {
      type: DT_STRING
    }
  }
  attr {
    key: "value"
    value {
      tensor {
        dtype: DT_STRING
        tensor_shape {
          dim {
            size: 655
          }
        }
        string_val: "C85"
        string_val: "C85"
        string_val: "C123"
        string_val: "C123"
        string_val: "C123"
        string_val: "E46"
        string_val: "E46"
        string_val: "E46"
        string_val: "E46"
        string_val: "G6"
        string_val: "C103"
        string_val: "C103"
        string_val: "C103"
        string_val: "C103"
        string_val: "C103"
        string_val: "C103"
        string_val: "C103"
        string_val: "C103"
        string_val: "C103"
        string_val: "C103"
        string_val: "D56"
        string_val: "D56"
        string_val: "A6"
        string_val: "A6"
        string_val: "A6"
        string_val: "A6"
        string_val: "C23 C25 C27"
        string_val: "C23 C25 C27"
        string_val: "C23 C25 C27"
        string_val: "C23 C25 C27"
        string_val: "B78"
        string_val: "B78"
        string_val: "B78"
        string_val: "B78"
        string_val: "B78"
        string_val: "B78"
        string_val: "B78"
        string_val: "B78"
        string_val: "B78"
        string_val: "B78"
        string_val: "B78"
        string_val: "B78"
        string_val: "B78"
        string_val: "B78"
        string_val: "B78"
        string_val: "B78"
        string_val: "B78"
        string_val: "B78"
        string_val: "B78"
        string_val: "B78"
        string_val: "B78"
        string_val: "D33"
        string_val: "D33"
        string_val: "B30"
        string_val: "C52"
        string_val: "C52"
        string_val: "C52"
        string_val: "C52"
        string_val: "C52"
        string_val: "C52"
        string_val: "B28"
        string_val: "C83"
        string_val: "C83"
        string_val: "C83"
        string_val: "C83"
        string_val: "F33"
        string_val: "F33"
        string_val: "F33"
        string_val: "F33"
        string_val: "F33"
        string_val: "F33"
        string_val: "F33"
        string_val: "F33"
        string_val: "F33"
        string_val: "F G73"
        string_val: "F G73"
        string_val: "F G73"
        string_val: "F G73"
        string_val: "F G73"
        string_val: "F G73"
        string_val: "F G73"
        string_val: "F G73"
        string_val: "F G73"
        string_val: "F G73"
        string_val: "F G73"
        string_val: "F G73"
        string_val: "F G73"
        string_val: "C23 C25 C27"
        string_val: "C23 C25 C27"
        string_val: "C23 C25 C27"
        string_val: "C23 C25 C27"
        string_val: "E31"
        string_val: "E31"
        string_val: "E31"
        string_val: "E31"
        string_val: "A5"
        string_val: "D10 D12"
        string_val: "D10 D12"
        string_val: "D10 D12"
        string_val: "D10 D12"
        string_val: "D10 D12"
        string_val: "D26"
        string_val: "D26"
        string_val: "D26"
        string_val: "D26"
        string_val: "D26"
        string_val: "D26"
        string_val: "D26"
        string_val: "D26"
        string_val: "C110"
        string_val: "C110"
        string_val: "C110"
        string_val: "C110"
        string_val: "C110"
        string_val: "C110"
        string_val: "C110"
        string_val: "C110"
        string_val: "B58 B60"
        string_val: "B58 B60"
        string_val: "B58 B60"
        string_val: "B58 B60"
        string_val: "B58 B60"
        string_val: "E101"
        string_val: "D26"
        string_val: "D26"
        string_val: "D26"
        string_val: "D26"
        string_val: "F E69"
        string_val: "F E69"
        string_val: "F E69"
        string_val: "F E69"
        string_val: "F E69"
        string_val: "F E69"
        string_val: "F E69"
        string_val: "F E69"
        string_val: "D47"
        string_val: "C123"
        string_val: "C123"
        string_val: "B86"
        string_val: "B86"
        string_val: "B86"
        string_val: "B86"
        string_val: "B86"
        string_val: "B86"
        string_val: "B86"
        string_val: "B86"
        string_val: "B86"
        string_val: "F2"
        string_val: "F2"
        string_val: "F2"
        string_val: "C2"
        string_val: "C2"
        string_val: "C2"
        string_val: "C2"
        string_val: "C2"
        string_val: "C2"
        string_val: "C2"
        string_val: "C2"
        string_val: "C2"
        string_val: "C2"
        string_val: "C2"
        string_val: "C2"
        string_val: "C2"
        string_val: "C2"
        string_val: "C2"
        string_val: "E33"
        string_val: "E33"
        string_val: "E33"
        string_val: "E33"
        string_val: "B19"
        string_val: "B19"
        string_val: "B19"
        string_val: "B19"
        string_val: "A7"
        string_val: "A7"
        string_val: "A7"
        string_val: "C49"
        string_val: "C49"
        string_val: "C49"
        string_val: "C49"
        string_val: "C49"
        string_val: "C49"
        string_val: "F4"
        string_val: "F4"
        string_val: "A32"
        string_val: "A32"
        string_val: "A32"
        string_val: "A32"
        string_val: "A32"
        string_val: "A32"
        string_val: "A32"
        string_val: "A32"
        string_val: "F2"
        string_val: "B4"
        string_val: "B80"
        string_val: "B80"
        string_val: "B80"
        string_val: "B80"
        string_val: "B80"
        string_val: "B80"
        string_val: "B80"
        string_val: "B80"
        string_val: "B80"
        string_val: "B80"
        string_val: "G6"
        string_val: "G6"
        string_val: "G6"
        string_val: "G6"
        string_val: "A31"
        string_val: "A31"
        string_val: "A31"
        string_val: "A31"
        string_val: "A31"
        string_val: "A31"
        string_val: "D36"
        string_val: "D36"
        string_val: "D36"
        string_val: "D15"
        string_val: "D15"
        string_val: "D15"
        string_val: "D15"
        string_val: "D15"
        string_val: "D15"
        string_val: "C93"
        string_val: "C93"
        string_val: "C93"
        string_val: "C93"
        string_val: "C93"
        string_val: "C93"
        string_val: "C83"
        string_val: "C83"
        string_val: "C83"
        string_val: "C83"
        string_val: "C83"
        string_val: "C83"
        string_val: "C83"
        string_val: "C83"
        string_val: "C83"
        string_val: "C83"
        string_val: "C83"
        string_val: "C83"
        string_val: "C83"
        string_val: "C83"
        string_val: "C83"
        string_val: "C78"
        string_val: "C78"
        string_val: "C78"
        string_val: "D35"
        string_val: "D35"
        string_val: "D35"
        string_val: "G6"
        string_val: "C87"
        string_val: "C87"
        string_val: "C87"
        string_val: "C87"
        string_val: "C87"
        string_val: "B77"
        string_val: "B77"
        string_val: "B77"
        string_val: "B77"
        string_val: "B77"
        string_val: "E67"
        string_val: "B94"
        string_val: "B94"
        string_val: "B94"
        string_val: "B94"
        string_val: "B94"
        string_val: "C125"
        string_val: "C99"
        string_val: "C99"
        string_val: "C99"
        string_val: "C99"
        string_val: "C118"
        string_val: "C118"
        string_val: "D7"
        string_val: "D7"
        string_val: "D7"
        string_val: "D7"
        string_val: "D7"
        string_val: "D7"
        string_val: "D7"
        string_val: "D7"
        string_val: "D7"
        string_val: "A19"
        string_val: "A19"
        string_val: "A19"
        string_val: "A19"
        string_val: "A19"
        string_val: "A19"
        string_val: "A19"
        string_val: "B49"
        string_val: "D"
        string_val: "D"
        string_val: "D"
        string_val: "D"
        string_val: "D"
        string_val: "C22 C26"
        string_val: "C106"
        string_val: "B58 B60"
        string_val: "B58 B60"
        string_val: "B58 B60"
        string_val: "B58 B60"
        string_val: "E101"
        string_val: "E101"
        string_val: "C22 C26"
        string_val: "C22 C26"
        string_val: "C65"
        string_val: "C65"
        string_val: "E36"
        string_val: "C54"
        string_val: "B57 B59 B63 B66"
        string_val: "B57 B59 B63 B66"
        string_val: "B57 B59 B63 B66"
        string_val: "B57 B59 B63 B66"
        string_val: "B57 B59 B63 B66"
        string_val: "B57 B59 B63 B66"
        string_val: "B57 B59 B63 B66"
        string_val: "C7"
        string_val: "E34"
        string_val: "E34"
        string_val: "E34"
        string_val: "E34"
        string_val: "E34"
        string_val: "E34"
        string_val: "C32"
        string_val: "C32"
        string_val: "D"
        string_val: "D"
        string_val: "B18"
        string_val: "B18"
        string_val: "C124"
        string_val: "C91"
        string_val: "C91"
        string_val: "C91"
        string_val: "C91"
        string_val: "C2"
        string_val: "E40"
        string_val: "E40"
        string_val: "T"
        string_val: "F2"
        string_val: "C23 C25 C27"
        string_val: "C23 C25 C27"
        string_val: "C23 C25 C27"
        string_val: "C23 C25 C27"
        string_val: "F33"
        string_val: "F33"
        string_val: "F33"
        string_val: "F33"
        string_val: "F33"
        string_val: "F33"
        string_val: "C128"
        string_val: "C128"
        string_val: "C128"
        string_val: "C128"
        string_val: "C128"
        string_val: "E33"
        string_val: "E33"
        string_val: "E33"
        string_val: "E33"
        string_val: "E33"
        string_val: "E33"
        string_val: "E33"
        string_val: "E33"
        string_val: "E33"
        string_val: "E33"
        string_val: "D37"
        string_val: "D37"
        string_val: "D37"
        string_val: "B35"
        string_val: "E50"
        string_val: "E50"
        string_val: "E50"
        string_val: "E50"
        string_val: "E50"
        string_val: "E50"
        string_val: "E50"
        string_val: "C82"
        string_val: "C82"
        string_val: "C82"
        string_val: "C82"
        string_val: "C82"
        string_val: "C82"
        string_val: "C82"
        string_val: "C82"
        string_val: "C82"
        string_val: "C82"
        string_val: "C82"
        string_val: "C82"
        string_val: "C82"
        string_val: "B96 B98"
        string_val: "B96 B98"
        string_val: "B96 B98"
        string_val: "D36"
        string_val: "G6"
        string_val: "G6"
        string_val: "G6"
        string_val: "G6"
        string_val: "G6"
        string_val: "G6"
        string_val: "G6"
        string_val: "G6"
        string_val: "G6"
        string_val: "G6"
        string_val: "G6"
        string_val: "G6"
        string_val: "G6"
        string_val: "G6"
        string_val: "G6"
        string_val: "G6"
        string_val: "G6"
        string_val: "G6"
        string_val: "C78"
        string_val: "C78"
        string_val: "C78"
        string_val: "C78"
        string_val: "C78"
        string_val: "C78"
        string_val: "C78"
        string_val: "C78"
        string_val: "C78"
        string_val: "C78"
        string_val: "C78"
        string_val: "C78"
        string_val: "C78"
        string_val: "C78"
        string_val: "C78"
        string_val: "C78"
        string_val: "C78"
        string_val: "E10"
        string_val: "C52"
        string_val: "C52"
        string_val: "C52"
        string_val: "C52"
        string_val: "E44"
        string_val: "B96 B98"
        string_val: "B96 B98"
        string_val: "B96 B98"
        string_val: "C23 C25 C27"
        string_val: "C23 C25 C27"
        string_val: "C23 C25 C27"
        string_val: "C23 C25 C27"
        string_val: "C23 C25 C27"
        string_val: "C23 C25 C27"
        string_val: "C23 C25 C27"
        string_val: "A34"
        string_val: "A34"
        string_val: "A34"
        string_val: "A34"
        string_val: "C104"
        string_val: "C104"
        string_val: "C104"
        string_val: "C111"
        string_val: "C92"
        string_val: "C92"
        string_val: "C92"
        string_val: "E38"
        string_val: "D21"
        string_val: "D21"
        string_val: "D21"
        string_val: "E12"
        string_val: "E12"
        string_val: "E63"
        string_val: "E63"
        string_val: "E63"
        string_val: "E63"
        string_val: "E63"
        string_val: "E63"
        string_val: "E63"
        string_val: "E63"
        string_val: "E63"
        string_val: "E63"
        string_val: "E63"
        string_val: "D"
        string_val: "D"
        string_val: "A14"
        string_val: "A14"
        string_val: "A14"
        string_val: "A14"
        string_val: "A14"
        string_val: "A14"
        string_val: "A14"
        string_val: "A14"
        string_val: "A14"
        string_val: "B49"
        string_val: "B49"
        string_val: "C93"
        string_val: "B37"
        string_val: "B37"
        string_val: "B37"
        string_val: "B37"
        string_val: "B37"
        string_val: "C30"
        string_val: "C30"
        string_val: "C30"
        string_val: "C30"
        string_val: "D20"
        string_val: "D20"
        string_val: "C22 C26"
        string_val: "C22 C26"
        string_val: "C22 C26"
        string_val: "C22 C26"
        string_val: "C22 C26"
        string_val: "C22 C26"
        string_val: "B79"
        string_val: "C65"
        string_val: "C65"
        string_val: "C65"
        string_val: "C65"
        string_val: "C65"
        string_val: "C65"
        string_val: "C65"
        string_val: "E25"
        string_val: "E25"
        string_val: "E25"
        string_val: "D46"
        string_val: "F33"
        string_val: "F33"
        string_val: "F33"
        string_val: "F33"
        string_val: "B73"
        string_val: "B73"
        string_val: "B73"
        string_val: "B18"
        string_val: "B18"
        string_val: "B18"
        string_val: "B18"
        string_val: "C95"
        string_val: "C95"
        string_val: "C95"
        string_val: "C95"
        string_val: "C95"
        string_val: "C95"
        string_val: "C95"
        string_val: "C95"
        string_val: "C95"
        string_val: "B38"
        string_val: "B38"
        string_val: "B38"
        string_val: "B39"
        string_val: "B22"
        string_val: "B22"
        string_val: "B22"
        string_val: "B22"
        string_val: "C86"
        string_val: "C86"
        string_val: "C86"
        string_val: "C86"
        string_val: "C86"
        string_val: "C86"
        string_val: "C70"
        string_val: "C70"
        string_val: "C70"
        string_val: "C70"
        string_val: "C70"
        string_val: "C70"
        string_val: "A16"
        string_val: "A16"
        string_val: "E67"
        string_val: "E67"
        string_val: "E67"
        string_val: "E67"
        string_val: "E67"
        string_val: "E67"
        string_val: "E67"
        string_val: "E67"
        string_val: "E67"
        string_val: "E67"
        string_val: "E67"
        string_val: "E67"
        string_val: "E67"
        string_val: "C101"
        string_val: "E25"
        string_val: "E25"
        string_val: "E25"
        string_val: "E25"
        string_val: "E25"
        string_val: "E44"
        string_val: "E44"
        string_val: "E44"
        string_val: "E44"
        string_val: "C68"
        string_val: "C68"
        string_val: "A10"
        string_val: "A10"
        string_val: "E68"
        string_val: "E68"
        string_val: "B41"
        string_val: "B41"
        string_val: "B41"
        string_val: "B41"
        string_val: "D20"
        string_val: "D20"
        string_val: "D20"
        string_val: "D20"
        string_val: "D20"
        string_val: "D20"
        string_val: "D20"
        string_val: "D20"
        string_val: "A20"
        string_val: "A20"
        string_val: "A20"
        string_val: "A20"
        string_val: "A20"
        string_val: "A20"
        string_val: "A20"
        string_val: "A20"
        string_val: "A20"
        string_val: "A20"
        string_val: "C125"
        string_val: "C125"
        string_val: "C125"
        string_val: "C125"
        string_val: "C125"
        string_val: "C125"
        string_val: "C125"
        string_val: "C125"
        string_val: "C125"
        string_val: "F4"
        string_val: "F4"
        string_val: "F4"
        string_val: "D19"
        string_val: "D19"
        string_val: "D19"
        string_val: "D19"
        string_val: "D50"
        string_val: "D50"
        string_val: "D9"
        string_val: "D9"
        string_val: "D9"
        string_val: "A23"
        string_val: "A23"
        string_val: "B50"
        string_val: "B50"
        string_val: "B50"
        string_val: "B50"
        string_val: "B50"
        string_val: "B50"
        string_val: "B50"
        string_val: "B50"
        string_val: "B50"
        string_val: "B35"
        string_val: "B35"
        string_val: "B35"
        string_val: "B35"
        string_val: "D33"
        string_val: "D33"
        string_val: "A26"
        string_val: "A26"
        string_val: "A26"
        string_val: "A26"
        string_val: "A26"
        string_val: "A26"
        string_val: "A26"
        string_val: "A26"
        string_val: "A26"
      }
    }
  }
}
node {
  name: "normalize_element/component_2"
  op: "Const"
  device: "/device:CPU:0"
  attr {
    key: "_output_shapes"
    value {
      list {
        shape {
          dim {
            size: 655
          }
        }
      }
    }
  }
  attr {
    key: "dtype"
    value {
      type: DT_STRING
    }
  }
  attr {
    key: "value"
    value {
      tensor {
        dtype: DT_STRING
        tensor_shape {
          dim {
            size: 655
          }
        }
        string_val: "C"
        string_val: "S"
        string_val: "S"
        string_val: "S"
        string_val: "Q"
        string_val: "S"
        string_val: "S"
        string_val: "S"
        string_val: "C"
        string_val: "S"
        string_val: "S"
        string_val: "S"
        string_val: "S"
        string_val: "S"
        string_val: "S"
        string_val: "Q"
        string_val: "S"
        string_val: "S"
        string_val: "C"
        string_val: "S"
        string_val: "S"
        string_val: "Q"
        string_val: "S"
        string_val: "S"
        string_val: "S"
        string_val: "C"
        string_val: "S"
        string_val: "Q"
        string_val: "S"
        string_val: "C"
        string_val: "C"
        string_val: "Q"
        string_val: "S"
        string_val: "C"
        string_val: "S"
        string_val: "C"
        string_val: "S"
        string_val: "S"
        string_val: "C"
        string_val: "S"
        string_val: "S"
        string_val: "C"
        string_val: "C"
        string_val: "Q"
        string_val: "S"
        string_val: "Q"
        string_val: "Q"
        string_val: "C"
        string_val: "S"
        string_val: "S"
        string_val: "S"
        string_val: "C"
        string_val: "S"
        string_val: "C"
        string_val: "S"
        string_val: "S"
        string_val: "C"
        string_val: "S"
        string_val: "S"
        string_val: "C"
        string_val: "C"
        string_val: "S"
        string_val: "S"
        string_val: "C"
        string_val: "C"
        string_val: "S"
        string_val: "S"
        string_val: "S"
        string_val: "S"
        string_val: "S"
        string_val: "S"
        string_val: "S"
        string_val: "C"
        string_val: "S"
        string_val: "S"
        string_val: "S"
        string_val: "S"
        string_val: "S"
        string_val: "S"
        string_val: "S"
        string_val: "S"
        string_val: "Q"
        string_val: "S"
        string_val: "S"
        string_val: "S"
        string_val: "S"
        string_val: "S"
        string_val: "S"
        string_val: "S"
        string_val: "S"
        string_val: "S"
        string_val: "S"
        string_val: "S"
        string_val: "S"
        string_val: "S"
        string_val: "C"
        string_val: "C"
        string_val: "S"
        string_val: "S"
        string_val: "S"
        string_val: "S"
        string_val: "S"
        string_val: "S"
        string_val: "S"
        string_val: "S"
        string_val: "S"
        string_val: "S"
        string_val: "S"
        string_val: "Q"
        string_val: "S"
        string_val: "C"
        string_val: "S"
        string_val: "S"
        string_val: "C"
        string_val: "S"
        string_val: "Q"
        string_val: "S"
        string_val: "C"
        string_val: "S"
        string_val: "S"
        string_val: "S"
        string_val: "C"
        string_val: "S"
        string_val: "S"
        string_val: "C"
        string_val: "Q"
        string_val: "S"
        string_val: "C"
        string_val: "S"
        string_val: "C"
        string_val: "S"
        string_val: "S"
        string_val: "S"
        string_val: "S"
        string_val: "C"
        string_val: "S"
        string_val: "S"
        string_val: "S"
        string_val: "C"
        string_val: "C"
        string_val: "S"
        string_val: "S"
        string_val: "Q"
        string_val: "S"
        string_val: "S"
        string_val: "S"
        string_val: "S"
        string_val: "S"
        string_val: "S"
        string_val: "S"
        string_val: "S"
        string_val: "S"
        string_val: "S"
        string_val: "S"
        string_val: "C"
        string_val: "Q"
        string_val: "S"
        string_val: "S"
        string_val: "S"
        string_val: "S"
        string_val: "S"
        string_val: "S"
        string_val: "S"
        string_val: "S"
        string_val: "S"
        string_val: "S"
        string_val: "S"
        string_val: "S"
        string_val: "S"
        string_val: "S"
        string_val: "Q"
        string_val: "S"
        string_val: "S"
        string_val: "C"
        string_val: "S"
        string_val: "S"
        string_val: "C"
        string_val: "S"
        string_val: "S"
        string_val: "S"
        string_val: "C"
        string_val: "S"
        string_val: "S"
        string_val: "S"
        string_val: "S"
        string_val: "Q"
        string_val: "S"
        string_val: "Q"
        string_val: "S"
        string_val: "S"
        string_val: "S"
        string_val: "S"
        string_val: "S"
        string_val: "C"
        string_val: "C"
        string_val: "Q"
        string_val: "S"
        string_val: "Q"
        string_val: "S"
        string_val: "S"
        string_val: "S"
        string_val: "S"
        string_val: "C"
        string_val: "S"
        string_val: "S"
        string_val: "S"
        string_val: "C"
        string_val: "Q"
        string_val: "C"
        string_val: "S"
        string_val: "S"
        string_val: "S"
        string_val: "S"
        string_val: "Q"
        string_val: "C"
        string_val: "S"
        string_val: "S"
        string_val: "C"
        string_val: "S"
        string_val: "S"
        string_val: "S"
        string_val: "S"
        string_val: "S"
        string_val: "S"
        string_val: "S"
        string_val: "S"
        string_val: "S"
        string_val: "S"
        string_val: "S"
        string_val: "S"
        string_val: "S"
        string_val: "S"
        string_val: "S"
        string_val: "S"
        string_val: "S"
        string_val: "S"
        string_val: "S"
        string_val: "S"
        string_val: "S"
        string_val: "C"
        string_val: "Q"
        string_val: "S"
        string_val: "S"
        string_val: "C"
        string_val: "Q"
        string_val: "S"
        string_val: "S"
        string_val: "S"
        string_val: "S"
        string_val: "S"
        string_val: "S"
        string_val: "S"
        string_val: "S"
        string_val: "S"
        string_val: "C"
        string_val: "C"
        string_val: "S"
        string_val: "C"
        string_val: "S"
        string_val: "Q"
        string_val: "S"
        string_val: "S"
        string_val: "S"
        string_val: "Q"
        string_val: "S"
        string_val: "S"
        string_val: "S"
        string_val: "S"
        string_val: "S"
        string_val: "S"
        string_val: "S"
        string_val: "S"
        string_val: "C"
        string_val: "Q"
        string_val: "S"
        string_val: "S"
        string_val: "S"
        string_val: "Q"
        string_val: "S"
        string_val: "Q"
        string_val: "S"
        string_val: "S"
        string_val: "S"
        string_val: "S"
        string_val: "C"
        string_val: "S"
        string_val: "S"
        string_val: "S"
        string_val: "Q"
        string_val: "S"
        string_val: "C"
        string_val: "C"
        string_val: "S"
        string_val: "S"
        string_val: "C"
        string_val: "C"
        string_val: "S"
        string_val: "S"
        string_val: "C"
        string_val: "Q"
        string_val: "Q"
        string_val: "S"
        string_val: "Q"
        string_val: "S"
        string_val: "S"
        string_val: "C"
        string_val: "C"
        string_val: "C"
        string_val: "C"
        string_val: "C"
        string_val: "C"
        string_val: "S"
        string_val: "S"
        string_val: "S"
        string_val: "S"
        string_val: "S"
        string_val: "S"
        string_val: "S"
        string_val: "C"
        string_val: "S"
        string_val: "S"
        string_val: "Q"
        string_val: "S"
        string_val: "S"
        string_val: "C"
        string_val: "S"
        string_val: "S"
        string_val: "S"
        string_val: "C"
        string_val: "Q"
        string_val: "S"
        string_val: "S"
        string_val: "S"
        string_val: "S"
        string_val: "S"
        string_val: "S"
        string_val: "C"
        string_val: "S"
        string_val: "S"
        string_val: "S"
        string_val: "S"
        string_val: "S"
        string_val: "S"
        string_val: "S"
        string_val: "S"
        string_val: "S"
        string_val: "S"
        string_val: "S"
        string_val: "S"
        string_val: "S"
        string_val: "S"
        string_val: "C"
        string_val: "S"
        string_val: "C"
        string_val: "S"
        string_val: "S"
        string_val: "S"
        string_val: "Q"
        string_val: "Q"
        string_val: "S"
        string_val: "C"
        string_val: "C"
        string_val: "S"
        string_val: "Q"
        string_val: "S"
        string_val: "C"
        string_val: "C"
        string_val: "Q"
        string_val: "C"
        string_val: "C"
        string_val: "S"
        string_val: "S"
        string_val: "C"
        string_val: "S"
        string_val: "C"
        string_val: "S"
        string_val: "C"
        string_val: "C"
        string_val: "S"
        string_val: "C"
        string_val: "C"
        string_val: "S"
        string_val: "S"
        string_val: "S"
        string_val: "S"
        string_val: "S"
        string_val: "S"
        string_val: "Q"
        string_val: "C"
        string_val: "S"
        string_val: "S"
        string_val: "S"
        string_val: "C"
        string_val: "S"
        string_val: "S"
        string_val: "S"
        string_val: "S"
        string_val: "S"
        string_val: "S"
        string_val: "S"
        string_val: "S"
        string_val: "S"
        string_val: "S"
        string_val: "S"
        string_val: "S"
        string_val: "S"
        string_val: "S"
        string_val: "S"
        string_val: "S"
        string_val: "S"
        string_val: "Q"
        string_val: "Q"
        string_val: "S"
        string_val: "S"
        string_val: "S"
        string_val: "S"
        string_val: "S"
        string_val: "S"
        string_val: "S"
        string_val: "C"
        string_val: "Q"
        string_val: "S"
        string_val: "S"
        string_val: "S"
        string_val: "S"
        string_val: "S"
        string_val: "S"
        string_val: "Q"
        string_val: "S"
        string_val: "S"
        string_val: "S"
        string_val: "S"
        string_val: "S"
        string_val: "S"
        string_val: "S"
        string_val: "S"
        string_val: "S"
        string_val: "S"
        string_val: "S"
        string_val: "S"
        string_val: "S"
        string_val: "S"
        string_val: "S"
        string_val: "S"
        string_val: "S"
        string_val: "S"
        string_val: "S"
        string_val: "C"
        string_val: "S"
        string_val: "S"
        string_val: "S"
        string_val: "C"
        string_val: "C"
        string_val: "S"
        string_val: "C"
        string_val: "S"
        string_val: "S"
        string_val: "S"
        string_val: "Q"
        string_val: "S"
        string_val: "S"
        string_val: "S"
        string_val: "S"
        string_val: "S"
        string_val: "S"
        string_val: "S"
        string_val: "S"
        string_val: "Q"
        string_val: "C"
        string_val: "S"
        string_val: "S"
        string_val: "S"
        string_val: "C"
        string_val: "S"
        string_val: "S"
        string_val: "S"
        string_val: "S"
        string_val: "S"
        string_val: "S"
        string_val: "S"
        string_val: "S"
        string_val: "S"
        string_val: "S"
        string_val: "C"
        string_val: "S"
        string_val: "S"
        string_val: "C"
        string_val: "S"
        string_val: "S"
        string_val: "S"
        string_val: "S"
        string_val: "S"
        string_val: "C"
        string_val: "S"
        string_val: "C"
        string_val: "C"
        string_val: "S"
        string_val: "S"
        string_val: "S"
        string_val: "S"
        string_val: "Q"
        string_val: "Q"
        string_val: "S"
        string_val: "S"
        string_val: "C"
        string_val: "S"
        string_val: "S"
        string_val: "S"
        string_val: "S"
        string_val: "Q"
        string_val: "S"
        string_val: "S"
        string_val: "C"
        string_val: "S"
        string_val: "S"
        string_val: "S"
        string_val: "Q"
        string_val: "S"
        string_val: "S"
        string_val: "S"
        string_val: "S"
        string_val: "C"
        string_val: "C"
        string_val: "C"
        string_val: "Q"
        string_val: "S"
        string_val: "S"
        string_val: "S"
        string_val: "S"
        string_val: "S"
        string_val: "C"
        string_val: "C"
        string_val: "C"
        string_val: "S"
        string_val: "S"
        string_val: "S"
        string_val: "C"
        string_val: "S"
        string_val: "C"
        string_val: "S"
        string_val: "S"
        string_val: "S"
        string_val: "S"
        string_val: "C"
        string_val: "S"
        string_val: "S"
        string_val: "C"
        string_val: "S"
        string_val: "S"
        string_val: "C"
        string_val: "S"
        string_val: "Q"
        string_val: "C"
        string_val: "S"
        string_val: "S"
        string_val: "C"
        string_val: "C"
        string_val: "S"
        string_val: "S"
        string_val: "Q"
        string_val: "S"
        string_val: "S"
        string_val: "S"
        string_val: "S"
        string_val: "S"
        string_val: "S"
        string_val: "S"
        string_val: "C"
        string_val: "S"
        string_val: "S"
        string_val: "S"
        string_val: "S"
        string_val: "Q"
        string_val: "S"
        string_val: "S"
        string_val: "S"
        string_val: "S"
        string_val: "C"
        string_val: "S"
        string_val: "S"
        string_val: "C"
        string_val: "S"
        string_val: "C"
        string_val: "C"
        string_val: "S"
        string_val: "S"
        string_val: "C"
        string_val: "S"
        string_val: "S"
        string_val: "S"
        string_val: "C"
        string_val: "S"
        string_val: "Q"
        string_val: "S"
        string_val: "S"
        string_val: "S"
        string_val: "S"
        string_val: "C"
        string_val: "C"
        string_val: "S"
        string_val: "S"
        string_val: "S"
        string_val: "S"
        string_val: "C"
        string_val: "S"
        string_val: "S"
        string_val: "S"
        string_val: "C"
        string_val: "S"
        string_val: "S"
        string_val: "S"
        string_val: "Q"
        string_val: "Q"
        string_val: "S"
        string_val: "S"
        string_val: "S"
        string_val: "S"
        string_val: "S"
        string_val: "S"
        string_val: "C"
        string_val: "S"
        string_val: "C"
        string_val: "S"
        string_val: "S"
        string_val: "S"
        string_val: "Q"
        string_val: "S"
        string_val: "S"
        string_val: "Q"
        string_val: "S"
        string_val: "S"
        string_val: "C"
        string_val: "S"
        string_val: "S"
        string_val: "S"
        string_val: "S"
        string_val: "S"
        string_val: "S"
        string_val: "S"
        string_val: "S"
        string_val: "C"
        string_val: "S"
        string_val: "S"
        string_val: "C"
        string_val: "C"
        string_val: "S"
        string_val: "C"
        string_val: "S"
        string_val: "S"
        string_val: "S"
        string_val: "S"
        string_val: "S"
        string_val: "Q"
        string_val: "Q"
        string_val: "S"
      }
    }
  }
}
node {
  name: "normalize_element/component_3"
  op: "Const"
  device: "/device:CPU:0"
  attr {
    key: "_output_shapes"
    value {
      list {
        shape {
          dim {
            size: 655
          }
        }
      }
    }
  }
  attr {
    key: "dtype"
    value {
      type: DT_DOUBLE
    }
  }
  attr {
    key: "value"
    value {
      tensor {
        dtype: DT_DOUBLE
        tensor_shape {
          dim {
            size: 655
          }
        }
        tensor_content: "…"
      }
    }
  }
}
node {
  name: "normalize_element/component_4"
  op: "Const"
  device: "/device:CPU:0"
  attr {
    key: "_output_shapes"
    value {
      list {
        shape {
          dim {
            size: 655
          }
        }
      }
    }
  }
  attr {
    key: "dtype"
    value {
      type: DT_STRING
    }
  }
  attr {
    key: "value"
    value {
      tensor {
        dtype: DT_STRING
        tensor_shape {
          dim {
            size: 655
          }
        }
        string_val: "Cumings, Mrs. John Bradley (Florence Briggs Thayer)"
        string_val: "Heikkinen, Miss. Laina"
        string_val: "Futrelle, Mrs. Jacques Heath (Lily May Peel)"
        string_val: "Allen, Mr. William Henry"
        string_val: "Moran, Mr. James"
        string_val: "McCarthy, Mr. Timothy J"
        string_val: "Palsson, Master. Gosta Leonard"
        string_val: "Johnson, Mrs. Oscar W (Elisabeth Vilhelmina Berg)"
        string_val: "Nasser, Mrs. Nicholas (Adele Achem)"
        string_val: "Sandstrom, Miss. Marguerite Rut"
        string_val: "Bonnell, Miss. Elizabeth"
        string_val: "Saundercock, Mr. William Henry"
        string_val: "Andersson, Mr. Anders Johan"
        string_val: "Vestrom, Miss. Hulda Amanda Adolfina"
        string_val: "Hewlett, Mrs. (Mary D Kingcome) "
        string_val: "Rice, Master. Eugene"
        string_val: "Williams, Mr. Charles Eugene"
        string_val: "Vander Planke, Mrs. Julius (Emelia Maria Vandemoortele)"
        string_val: "Masselmani, Mrs. Fatima"
        string_val: "Fynney, Mr. Joseph J"
        string_val: "Beesley, Mr. Lawrence"
        string_val: "McGowan, Miss. Anna \"Annie\""
        string_val: "Sloper, Mr. William Thompson"
        string_val: "Palsson, Miss. Torborg Danira"
        string_val: "Asplund, Mrs. Carl Oscar (Selma Augusta Emilia Johansson)"
        string_val: "Emir, Mr. Farred Chehab"
        string_val: "Fortune, Mr. Charles Alexander"
        string_val: "O\'Dwyer, Miss. Ellen \"Nellie\""
        string_val: "Todoroff, Mr. Lalio"
        string_val: "Uruchurtu, Don. Manuel E"
        string_val: "Spencer, Mrs. William Augustus (Marie Eugenie)"
        string_val: "Glynn, Miss. Mary Agatha"
        string_val: "Wheadon, Mr. Edward H"
        string_val: "Meyer, Mr. Edgar Joseph"
        string_val: "Holverson, Mr. Alexander Oskar"
        string_val: "Mamee, Mr. Hanna"
        string_val: "Cann, Mr. Ernest Charles"
        string_val: "Vander Planke, Miss. Augusta Maria"
        string_val: "Nicola-Yarred, Miss. Jamila"
        string_val: "Ahlin, Mrs. Johan (Johanna Persdotter Larsson)"
        string_val: "Turpin, Mrs. William John Robert (Dorothy Ann Wonnacott)"
        string_val: "Kraeff, Mr. Theodor"
        string_val: "Laroche, Miss. Simonne Marie Anne Andree"
        string_val: "Devaney, Miss. Margaret Delia"
        string_val: "Rogers, Mr. William John"
        string_val: "Lennon, Mr. Denis"
        string_val: "O\'Driscoll, Miss. Bridget"
        string_val: "Samaan, Mr. Youssef"
        string_val: "Arnold-Franchi, Mrs. Josef (Josefine Franchi)"
        string_val: "Panula, Master. Juha Niilo"
        string_val: "Nosworthy, Mr. Richard Cater"
        string_val: "Harper, Mrs. Henry Sleeper (Myna Haxtun)"
        string_val: "Faunthorpe, Mrs. Lizzie (Elizabeth Anne Wilkinson)"
        string_val: "Ostby, Mr. Engelhart Cornelius"
        string_val: "Woolner, Mr. Hugh"
        string_val: "Rugg, Miss. Emily"
        string_val: "Novel, Mr. Mansouer"
        string_val: "West, Miss. Constance Mirium"
        string_val: "Goodwin, Master. William Frederick"
        string_val: "Sirayanian, Mr. Orsen"
        string_val: "Icard, Miss. Amelie"
        string_val: "Harris, Mr. Henry Birkhardt"
        string_val: "Skoog, Master. Harald"
        string_val: "Stewart, Mr. Albert A"
        string_val: "Moubarek, Master. Gerios"
        string_val: "Nye, Mrs. (Elizabeth Ramell)"
        string_val: "Crease, Mr. Ernest James"
        string_val: "Andersson, Miss. Erna Alexandra"
        string_val: "Kink, Mr. Vincenz"
        string_val: "Jenkin, Mr. Stephen Curnow"
        string_val: "Goodwin, Miss. Lillian Amy"
        string_val: "Hood, Mr. Ambrose Jr"
        string_val: "Chronopoulos, Mr. Apostolos"
        string_val: "Bing, Mr. Lee"
        string_val: "Moen, Mr. Sigurd Hansen"
        string_val: "Staneff, Mr. Ivan"
        string_val: "Moutal, Mr. Rahamin Haim"
        string_val: "Caldwell, Master. Alden Gates"
        string_val: "Dowdell, Miss. Elizabeth"
        string_val: "Waelens, Mr. Achille"
        string_val: "Sheerlinck, Mr. Jan Baptist"
        string_val: "McDermott, Miss. Brigdet Delia"
        string_val: "Carrau, Mr. Francisco M"
        string_val: "Ilett, Miss. Bertha"
        string_val: "Backstrom, Mrs. Karl Alfred (Maria Mathilda Gustafsson)"
        string_val: "Ford, Mr. William Neal"
        string_val: "Slocovski, Mr. Selman Francis"
        string_val: "Fortune, Miss. Mabel Helen"
        string_val: "Celotti, Mr. Francesco"
        string_val: "Christmann, Mr. Emil"
        string_val: "Andreasson, Mr. Paul Edvin"
        string_val: "Chaffee, Mr. Herbert Fuller"
        string_val: "Dean, Mr. Bertram Frank"
        string_val: "Coxon, Mr. Daniel"
        string_val: "Shorney, Mr. Charles Joseph"
        string_val: "Goldschmidt, Mr. George B"
        string_val: "Greenfield, Mr. William Bertram"
        string_val: "Doling, Mrs. John T (Ada Julia Bone)"
        string_val: "Kantor, Mr. Sinai"
        string_val: "Petranec, Miss. Matilda"
        string_val: "Petroff, Mr. Pastcho (\"Pentcho\")"
        string_val: "White, Mr. Richard Frasar"
        string_val: "Johansson, Mr. Gustaf Joel"
        string_val: "Gustafsson, Mr. Anders Vilhelm"
        string_val: "Mionoff, Mr. Stoytcho"
        string_val: "Salkjelsvik, Miss. Anna Kristine"
        string_val: "Moss, Mr. Albert Johan"
        string_val: "Rekic, Mr. Tido"
        string_val: "Moran, Miss. Bertha"
        string_val: "Porter, Mr. Walter Chamberlain"
        string_val: "Zabour, Miss. Hileni"
        string_val: "Barton, Mr. David John"
        string_val: "Jussila, Miss. Katriina"
        string_val: "Attalah, Miss. Malake"
        string_val: "Pekoniemi, Mr. Edvard"
        string_val: "Connors, Mr. Patrick"
        string_val: "Turpin, Mr. William John Robert"
        string_val: "Baxter, Mr. Quigg Edmond"
        string_val: "Andersson, Miss. Ellis Anna Maria"
        string_val: "Hickman, Mr. Stanley George"
        string_val: "Moore, Mr. Leonard Charles"
        string_val: "Nasser, Mr. Nicholas"
        string_val: "Webber, Miss. Susan"
        string_val: "White, Mr. Percival Wayland"
        string_val: "Nicola-Yarred, Master. Elias"
        string_val: "McMahon, Mr. Martin"
        string_val: "Madsen, Mr. Fridtjof Arne"
        string_val: "Peter, Miss. Anna"
        string_val: "Ekstrom, Mr. Johan"
        string_val: "Drazenoic, Mr. Jozef"
        string_val: "Coelho, Mr. Domingos Fernandeo"
        string_val: "Robins, Mrs. Alexander A (Grace Charity Laury)"
        string_val: "Weisz, Mrs. Leopold (Mathilde Francoise Pede)"
        string_val: "Sobey, Mr. Samuel James Hayden"
        string_val: "Richard, Mr. Emile"
        string_val: "Newsom, Miss. Helen Monypeny"
        string_val: "Futrelle, Mr. Jacques Heath"
        string_val: "Osen, Mr. Olaf Elon"
        string_val: "Giglio, Mr. Victor"
        string_val: "Boulos, Mrs. Joseph (Sultana)"
        string_val: "Nysten, Miss. Anna Sofia"
        string_val: "Hakkarainen, Mrs. Pekka Pietari (Elin Matilda Dolck)"
        string_val: "Burke, Mr. Jeremiah"
        string_val: "Andrew, Mr. Edgardo Samuel"
        string_val: "Nicholls, Mr. Joseph Charles"
        string_val: "Andersson, Mr. August Edvard (\"Wennerstrom\")"
        string_val: "Ford, Miss. Robina Maggie \"Ruby\""
        string_val: "Navratil, Mr. Michel (\"Louis M Hoffman\")"
        string_val: "Byles, Rev. Thomas Roussel Davids"
        string_val: "Bateman, Rev. Robert James"
        string_val: "Pears, Mrs. Thomas (Edith Wearne)"
        string_val: "Meo, Mr. Alfonzo"
        string_val: "van Billiard, Mr. Austin Blyler"
        string_val: "Olsen, Mr. Ole Martin"
        string_val: "Williams, Mr. Charles Duane"
        string_val: "Gilnagh, Miss. Katherine \"Katie\""
        string_val: "Corn, Mr. Harry"
        string_val: "Smiljanic, Mr. Mile"
        string_val: "Sage, Master. Thomas Henry"
        string_val: "Cribb, Mr. John Hatfield"
        string_val: "Watt, Mrs. James (Elizabeth \"Bessie\" Inglis Milne)"
        string_val: "Bengtsson, Mr. John Viktor"
        string_val: "Calic, Mr. Jovo"
        string_val: "Panula, Master. Eino Viljami"
        string_val: "Goldsmith, Master. Frank John William \"Frankie\""
        string_val: "Chibnall, Mrs. (Edith Martha Bowerman)"
        string_val: "Skoog, Mrs. William (Anna Bernhardina Karlsson)"
        string_val: "Baumann, Mr. John D"
        string_val: "Ling, Mr. Lee"
        string_val: "Van der hoef, Mr. Wyckoff"
        string_val: "Rice, Master. Arthur"
        string_val: "Johnson, Miss. Eleanor Ileen"
        string_val: "Sivola, Mr. Antti Wilhelm"
        string_val: "Smith, Mr. James Clinch"
        string_val: "Klasen, Mr. Klas Albin"
        string_val: "Lefebre, Master. Henry Forbes"
        string_val: "Isham, Miss. Ann Elizabeth"
        string_val: "Hale, Mr. Reginald"
        string_val: "Leonard, Mr. Lionel"
        string_val: "Sage, Miss. Constance Gladys"
        string_val: "Pernot, Mr. Rene"
        string_val: "Asplund, Master. Clarence Gustaf Hugo"
        string_val: "Becker, Master. Richard F"
        string_val: "Kink-Heilmann, Miss. Luise Gretchen"
        string_val: "Rood, Mr. Hugh Roscoe"
        string_val: "O\'Brien, Mrs. Thomas (Johanna \"Hannah\" Godfrey)"
        string_val: "Romaine, Mr. Charles Hallace (\"Mr C Rolmane\")"
        string_val: "Bourke, Mr. John"
        string_val: "Turcin, Mr. Stjepan"
        string_val: "Pinsky, Mrs. (Rosa)"
        string_val: "Carbines, Mr. William"
        string_val: "Andersen-Jensen, Miss. Carla Christine Nielsine"
        string_val: "Navratil, Master. Michel M"
        string_val: "Brown, Mrs. James Joseph (Margaret Tobin)"
        string_val: "Lurette, Miss. Elise"
        string_val: "Mernagh, Mr. Robert"
        string_val: "Olsen, Mr. Karl Siegwart Andreas"
        string_val: "Madigan, Miss. Margaret \"Maggie\""
        string_val: "Yrois, Miss. Henriette (\"Mrs Harbeck\")"
        string_val: "Vande Walle, Mr. Nestor Cyriel"
        string_val: "Sage, Mr. Frederick"
        string_val: "Johanson, Mr. Jakob Alfred"
        string_val: "Youseff, Mr. Gerious"
        string_val: "Cohen, Mr. Gurshon \"Gus\""
        string_val: "Strom, Miss. Telma Matilda"
        string_val: "Backstrom, Mr. Karl Alfred"
        string_val: "Albimona, Mr. Nassef Cassem"
        string_val: "Carr, Miss. Helen \"Ellen\""
        string_val: "Blank, Mr. Henry"
        string_val: "Ali, Mr. Ahmed"
        string_val: "Cameron, Miss. Clear Annie"
        string_val: "Perkin, Mr. John Henry"
        string_val: "Givard, Mr. Hans Kristensen"
        string_val: "Kiernan, Mr. Philip"
        string_val: "Newell, Miss. Madeleine"
        string_val: "Honkanen, Miss. Eliina"
        string_val: "Jacobsohn, Mr. Sidney Samuel"
        string_val: "Bazzani, Miss. Albina"
        string_val: "Harris, Mr. Walter"
        string_val: "Sunderland, Mr. Victor Francis"
        string_val: "Bracken, Mr. James H"
        string_val: "Green, Mr. George Henry"
        string_val: "Nenkoff, Mr. Christo"
        string_val: "Hoyt, Mr. Frederick Maxfield"
        string_val: "Berglund, Mr. Karl Ivar Sven"
        string_val: "Mellors, Mr. William John"
        string_val: "Lovell, Mr. John Hall (\"Henry\")"
        string_val: "Fahlstrom, Mr. Arne Jonas"
        string_val: "Lefebre, Miss. Mathilde"
        string_val: "Harris, Mrs. Henry Birkhardt (Irene Wallach)"
        string_val: "Larsson, Mr. Bengt Edvin"
        string_val: "Sjostedt, Mr. Ernst Adolf"
        string_val: "Asplund, Miss. Lillian Gertrud"
        string_val: "Leyson, Mr. Robert William Norman"
        string_val: "Harknett, Miss. Alice Phoebe"
        string_val: "Hold, Mr. Stephen"
        string_val: "Collyer, Miss. Marjorie \"Lottie\""
        string_val: "Pengelly, Mr. Frederick William"
        string_val: "Hunt, Mr. George Henry"
        string_val: "Zabour, Miss. Thamine"
        string_val: "Murphy, Miss. Katherine \"Kate\""
        string_val: "Coleridge, Mr. Reginald Charles"
        string_val: "Maenpaa, Mr. Matti Alexanteri"
        string_val: "Attalah, Mr. Sleiman"
        string_val: "Minahan, Dr. William Edward"
        string_val: "Lindahl, Miss. Agda Thorilda Viktoria"
        string_val: "Hamalainen, Mrs. William (Anna)"
        string_val: "Beckwith, Mr. Richard Leonard"
        string_val: "Carter, Rev. Ernest Courtenay"
        string_val: "Reed, Mr. James George"
        string_val: "Strom, Mrs. Wilhelm (Elna Matilda Persson)"
        string_val: "Stead, Mr. William Thomas"
        string_val: "Lobb, Mr. William Arthur"
        string_val: "Rosblom, Mrs. Viktor (Helena Wilhelmina)"
        string_val: "Touma, Mrs. Darwis (Hanne Youssef Razi)"
        string_val: "Thorne, Mrs. Gertrude Maybelle"
        string_val: "Cherry, Miss. Gladys"
        string_val: "Ward, Miss. Anna"
        string_val: "Parrish, Mrs. (Lutie Davis)"
        string_val: "Smith, Mr. Thomas"
        string_val: "Asplund, Master. Edvin Rojj Felix"
        string_val: "Taussig, Mr. Emil"
        string_val: "Harrison, Mr. William"
        string_val: "Henry, Miss. Delia"
        string_val: "Reeves, Mr. David"
        string_val: "Panula, Mr. Ernesti Arvid"
        string_val: "Persson, Mr. Ernst Ulrik"
        string_val: "Graham, Mrs. William Thompson (Edith Junkins)"
        string_val: "Bissette, Miss. Amelia"
        string_val: "Cairns, Mr. Alexander"
        string_val: "Tornquist, Mr. William Henry"
        string_val: "Mellinger, Mrs. (Elizabeth Anne Maidment)"
        string_val: "Natsch, Mr. Charles H"
        string_val: "Healy, Miss. Hanora \"Nora\""
        string_val: "Andrews, Miss. Kornelia Theodosia"
        string_val: "Lindblom, Miss. Augusta Charlotta"
        string_val: "Parkes, Mr. Francis \"Frank\""
        string_val: "Rice, Master. Eric"
        string_val: "Abbott, Mrs. Stanton (Rosa Hunt)"
        string_val: "Duane, Mr. Frank"
        string_val: "Olsson, Mr. Nils Johan Goransson"
        string_val: "de Pelsmaeker, Mr. Alfons"
        string_val: "Dorking, Mr. Edward Arthur"
        string_val: "Smith, Mr. Richard William"
        string_val: "Stankovic, Mr. Ivan"
        string_val: "de Mulder, Mr. Theodore"
        string_val: "Naidenoff, Mr. Penko"
        string_val: "Hosono, Mr. Masabumi"
        string_val: "Connolly, Miss. Kate"
        string_val: "Barber, Miss. Ellen \"Nellie\""
        string_val: "Bishop, Mrs. Dickinson H (Helen Walton)"
        string_val: "Levy, Mr. Rene Jacques"
        string_val: "Haas, Miss. Aloisia"
        string_val: "Mineff, Mr. Ivan"
        string_val: "Lewy, Mr. Ervin G"
        string_val: "Hanna, Mr. Mansour"
        string_val: "Allison, Miss. Helen Loraine"
        string_val: "Saalfeld, Mr. Adolphe"
        string_val: "Baxter, Mrs. James (Helene DeLaudeniere Chaput)"
        string_val: "Kelly, Miss. Anna Katherine \"Annie Kate\""
        string_val: "McCoy, Mr. Bernard"
        string_val: "Johnson, Mr. William Cahoone Jr"
        string_val: "Keane, Miss. Nora A"
        string_val: "Williams, Mr. Howard Hugh \"Harry\""
        string_val: "Allison, Master. Hudson Trevor"
        string_val: "Fleming, Miss. Margaret"
        string_val: "Penasco y Castellana, Mrs. Victor de Satode (Maria Josefa Perez de Soto y Vallejo)"
        string_val: "Abelson, Mr. Samuel"
        string_val: "Francatelli, Miss. Laura Mabel"
        string_val: "Hays, Miss. Margaret Bechstein"
        string_val: "Ryerson, Miss. Emily Borie"
        string_val: "Lahtinen, Mrs. William (Anna Sylfven)"
        string_val: "Hendekovic, Mr. Ignjac"
        string_val: "Hart, Mr. Benjamin"
        string_val: "Nilsson, Miss. Helmina Josefina"
        string_val: "Kantor, Mrs. Sinai (Miriam Sternin)"
        string_val: "Moraweck, Dr. Ernest"
        string_val: "Wick, Miss. Mary Natalie"
        string_val: "Spedden, Mrs. Frederic Oakley (Margaretta Corning Stone)"
        string_val: "Dennis, Mr. Samuel"
        string_val: "Danoff, Mr. Yoto"
        string_val: "Slayter, Miss. Hilda Mary"
        string_val: "Caldwell, Mrs. Albert Francis (Sylvia Mae Harbaugh)"
        string_val: "Sage, Mr. George John Jr"
        string_val: "Young, Miss. Marie Grice"
        string_val: "Nysveen, Mr. Johan Hansen"
        string_val: "Ball, Mrs. (Ada E Hall)"
        string_val: "Goldsmith, Mrs. Frank John (Emily Alice Brown)"
        string_val: "Hippach, Miss. Jean Gertrude"
        string_val: "McCoy, Miss. Agnes"
        string_val: "Partner, Mr. Austen"
        string_val: "Graham, Mr. George Edward"
        string_val: "Vander Planke, Mr. Leo Edmondus"
        string_val: "Frauenthal, Mrs. Henry William (Clara Heinsheimer)"
        string_val: "Denkoff, Mr. Mitto"
        string_val: "Pears, Mr. Thomas Clinton"
        string_val: "Burns, Miss. Elizabeth Margaret"
        string_val: "Dahl, Mr. Karl Edwart"
        string_val: "Blackwell, Mr. Stephen Weart"
        string_val: "Navratil, Master. Edmond Roger"
        string_val: "Fortune, Miss. Alice Elizabeth"
        string_val: "Collander, Mr. Erik Gustaf"
        string_val: "Sedgwick, Mr. Charles Frederick Waddington"
        string_val: "Fox, Mr. Stanley Hubert"
        string_val: "Brown, Miss. Amelia \"Mildred\""
        string_val: "Smith, Miss. Marion Elsie"
        string_val: "Davison, Mrs. Thomas Henry (Mary E Finck)"
        string_val: "Coutts, Master. William Loch \"William\""
        string_val: "Dimic, Mr. Jovan"
        string_val: "Odahl, Mr. Nils Martin"
        string_val: "Williams-Lambert, Mr. Fletcher Fellows"
        string_val: "Elias, Mr. Tannous"
        string_val: "Arnold-Franchi, Mr. Josef"
        string_val: "Yousif, Mr. Wazli"
        string_val: "Vanden Steen, Mr. Leo Peter"
        string_val: "Bowerman, Miss. Elsie Edith"
        string_val: "Funk, Miss. Annie Clemmer"
        string_val: "McGovern, Miss. Mary"
        string_val: "Mockler, Miss. Helen Mary \"Ellie\""
        string_val: "Skoog, Mr. Wilhelm"
        string_val: "del Carlo, Mr. Sebastiano"
        string_val: "Barbara, Mrs. (Catherine David)"
        string_val: "Asim, Mr. Adola"
        string_val: "O\'Brien, Mr. Thomas"
        string_val: "Adahl, Mr. Mauritz Nils Martin"
        string_val: "Warren, Mrs. Frank Manley (Anna Sophia Atkinson)"
        string_val: "Moussa, Mrs. (Mantoura Boulos)"
        string_val: "Jermyn, Miss. Annie"
        string_val: "Aubart, Mme. Leontine Pauline"
        string_val: "Harder, Mr. George Achilles"
        string_val: "Wiklund, Mr. Jakob Alfred"
        string_val: "Beavan, Mr. William Thomas"
        string_val: "Ringhini, Mr. Sante"
        string_val: "Palsson, Miss. Stina Viola"
        string_val: "Meyer, Mrs. Edgar Joseph (Leila Saks)"
        string_val: "Landergren, Miss. Aurora Adelia"
        string_val: "Widener, Mr. Harry Elkins"
        string_val: "Betros, Mr. Tannous"
        string_val: "Gustafsson, Mr. Karl Gideon"
        string_val: "Bidois, Miss. Rosalie"
        string_val: "Nakid, Miss. Maria (\"Mary\")"
        string_val: "Tikkanen, Mr. Juho"
        string_val: "Holverson, Mrs. Alexander Oskar (Mary Aline Towner)"
        string_val: "Plotcharsky, Mr. Vasil"
        string_val: "Davies, Mr. Charles Henry"
        string_val: "Goodwin, Master. Sidney Leonard"
        string_val: "Buss, Miss. Kate"
        string_val: "Sadlier, Mr. Matthew"
        string_val: "Lehmann, Miss. Bertha"
        string_val: "Carter, Mr. William Ernest"
        string_val: "Jansson, Mr. Carl Olof"
        string_val: "Gustafsson, Mr. Johan Birger"
        string_val: "Newell, Miss. Marjorie"
        string_val: "Sandstrom, Mrs. Hjalmar (Agnes Charlotta Bengtsson)"
        string_val: "Johansson, Mr. Erik"
        string_val: "Olsson, Miss. Elina"
        string_val: "McKane, Mr. Peter David"
        string_val: "Pain, Dr. Alfred"
        string_val: "Trout, Mrs. William H (Jessie L)"
        string_val: "Niskanen, Mr. Juha"
        string_val: "Adams, Mr. John"
        string_val: "Jussila, Miss. Mari Aina"
        string_val: "Hakkarainen, Mr. Pekka Pietari"
        string_val: "Oreskovic, Miss. Marija"
        string_val: "Gale, Mr. Shadrach"
        string_val: "Widegren, Mr. Carl/Charles Peter"
        string_val: "Richards, Master. William Rowe"
        string_val: "Birkeland, Mr. Hans Martin Monsen"
        string_val: "Lefebre, Miss. Ida"
        string_val: "Sdycoff, Mr. Todor"
        string_val: "Hart, Mr. Henry"
        string_val: "Minahan, Miss. Daisy E"
        string_val: "Cunningham, Mr. Alfred Fleming"
        string_val: "Sundman, Mr. Johan Julian"
        string_val: "Meek, Mrs. Thomas (Annie Louise Rowley)"
        string_val: "Drew, Mrs. James Vivian (Lulu Thorne Christian)"
        string_val: "Silven, Miss. Lyyli Karoliina"
        string_val: "Matthews, Mr. William John"
        string_val: "Van Impe, Miss. Catharina"
        string_val: "Gheorgheff, Mr. Stanio"
        string_val: "Charters, Mr. David"
        string_val: "Zimmerman, Mr. Leo"
        string_val: "Danbom, Mrs. Ernst Gilbert (Anna Sigrid Maria Brogren)"
        string_val: "Rosblom, Mr. Viktor Richard"
        string_val: "Wiseman, Mr. Phillippe"
        string_val: "Clarke, Mrs. Charles V (Ada Maria Winfield)"
        string_val: "Phillips, Miss. Kate Florence (\"Mrs Kate Louise Phillips Marshall\")"
        string_val: "Flynn, Mr. James"
        string_val: "Pickard, Mr. Berk (Berk Trembisky)"
        string_val: "Bjornstrom-Steffansson, Mr. Mauritz Hakan"
        string_val: "Thorneycroft, Mrs. Percival (Florence Kate White)"
        string_val: "Louch, Mrs. Charles Alexander (Alice Adelaide Slow)"
        string_val: "Kallio, Mr. Nikolai Erland"
        string_val: "Silvey, Mr. William Baird"
        string_val: "Carter, Miss. Lucile Polk"
        string_val: "Ford, Miss. Doolina Margaret \"Daisy\""
        string_val: "Richards, Mrs. Sidney (Emily Hocking)"
        string_val: "Fortune, Mr. Mark"
        string_val: "Kvillner, Mr. Johan Henrik Johannesson"
        string_val: "Hart, Mrs. Benjamin (Esther Ada Bloomfield)"
        string_val: "Hampe, Mr. Leon"
        string_val: "Petterson, Mr. Johan Emil"
        string_val: "Reynaldo, Ms. Encarnacion"
        string_val: "Johannesen-Bratthammer, Mr. Bernt"
        string_val: "Dodge, Master. Washington"
        string_val: "Mellinger, Miss. Madeleine Violet"
        string_val: "Seward, Mr. Frederic Kimber"
        string_val: "Baclini, Miss. Marie Catherine"
        string_val: "Peuchen, Major. Arthur Godfrey"
        string_val: "West, Mr. Edwy Arthur"
        string_val: "Hagland, Mr. Ingvald Olai Olsen"
        string_val: "Foreman, Mr. Benjamin Laventall"
        string_val: "Goldenberg, Mr. Samuel L"
        string_val: "Peduzzi, Mr. Joseph"
        string_val: "Jalsevac, Mr. Ivan"
        string_val: "Millet, Mr. Francis Davis"
        string_val: "Kenyon, Mrs. Frederick R (Marion)"
        string_val: "Toomey, Miss. Ellen"
        string_val: "O\'Connor, Mr. Maurice"
        string_val: "Anderson, Mr. Harry"
        string_val: "Morley, Mr. William"
        string_val: "Gee, Mr. Arthur H"
        string_val: "Milling, Mr. Jacob Christian"
        string_val: "Maisner, Mr. Simon"
        string_val: "Goncalves, Mr. Manuel Estanslas"
        string_val: "Campbell, Mr. William"
        string_val: "Smart, Mr. John Montgomery"
        string_val: "Scanlan, Mr. James"
        string_val: "Baclini, Miss. Helene Barbara"
        string_val: "Keefe, Mr. Arthur"
        string_val: "Cacic, Mr. Luka"
        string_val: "West, Mrs. Edwy Arthur (Ada Mary Worth)"
        string_val: "Jerwan, Mrs. Amin S (Marie Marthe Thuillard)"
        string_val: "Strandberg, Miss. Ida Sofia"
        string_val: "Clifford, Mr. George Quincy"
        string_val: "Renouf, Mr. Peter Henry"
        string_val: "Braund, Mr. Lewis Richard"
        string_val: "Karlsson, Mr. Nils August"
        string_val: "Hirvonen, Miss. Hildur E"
        string_val: "Goodwin, Master. Harold Victor"
        string_val: "Frost, Mr. Anthony Wood \"Archie\""
        string_val: "Rouse, Mr. Richard Henry"
        string_val: "Turkula, Mrs. (Hedwig)"
        string_val: "Bishop, Mr. Dickinson H"
        string_val: "Lefebre, Miss. Jeannie"
        string_val: "Hoyt, Mrs. Frederick Maxfield (Jane Anne Forby)"
        string_val: "Kent, Mr. Edward Austin"
        string_val: "Somerton, Mr. Francis William"
        string_val: "Coutts, Master. Eden Leslie \"Neville\""
        string_val: "Hagland, Mr. Konrad Mathias Reiersen"
        string_val: "Windelov, Mr. Einar"
        string_val: "Molson, Mr. Harry Markland"
        string_val: "Artagaveytia, Mr. Ramon"
        string_val: "Stanley, Mr. Edward Roland"
        string_val: "Yousseff, Mr. Gerious"
        string_val: "Eustis, Miss. Elizabeth Mussey"
        string_val: "Shellard, Mr. Frederick William"
        string_val: "Allison, Mrs. Hudson J C (Bessie Waldo Daniels)"
        string_val: "Svensson, Mr. Olof"
        string_val: "Calic, Mr. Petar"
        string_val: "Canavan, Miss. Mary"
        string_val: "O\'Sullivan, Miss. Bridget Mary"
        string_val: "Laitinen, Miss. Kristina Sofia"
        string_val: "Maioni, Miss. Roberta"
        string_val: "Penasco y Castellana, Mr. Victor de Satode"
        string_val: "Quick, Mrs. Frederick Charles (Jane Richards)"
        string_val: "Bradley, Mr. George (\"George Arthur Brayton\")"
        string_val: "Olsen, Mr. Henry Margido"
        string_val: "Lang, Mr. Fang"
        string_val: "Daly, Mr. Eugene Patrick"
        string_val: "Webber, Mr. James"
        string_val: "McGough, Mr. James Robert"
        string_val: "Rothschild, Mrs. Martin (Elizabeth L. Barrett)"
        string_val: "Coleff, Mr. Satio"
        string_val: "Walker, Mr. William Anderson"
        string_val: "Lemore, Mrs. (Amelia Milley)"
        string_val: "Ryan, Mr. Patrick"
        string_val: "Angle, Mrs. William A (Florence \"Mary\" Agnes Hughes)"
        string_val: "Pavlovic, Mr. Stefo"
        string_val: "Perreault, Miss. Anne"
        string_val: "Vovk, Mr. Janko"
        string_val: "Lahoud, Mr. Sarkis"
        string_val: "Hippach, Mrs. Louis Albert (Ida Sophia Fischer)"
        string_val: "Kassem, Mr. Fared"
        string_val: "Farrell, Mr. James"
        string_val: "Ridsdale, Miss. Lucy"
        string_val: "Farthing, Mr. John"
        string_val: "Salonen, Mr. Johan Werner"
        string_val: "Hocking, Mr. Richard George"
        string_val: "Quick, Miss. Phyllis May"
        string_val: "Toufik, Mr. Nakli"
        string_val: "Elias, Mr. Joseph Jr"
        string_val: "Peter, Mrs. Catherine (Catherine Rizk)"
        string_val: "Cacic, Miss. Marija"
        string_val: "Hart, Miss. Eva Miriam"
        string_val: "Butt, Major. Archibald Willingham"
        string_val: "LeRoy, Miss. Bertha"
        string_val: "Risien, Mr. Samuel Beard"
        string_val: "Frolicher, Miss. Hedwig Margaritha"
        string_val: "Crosby, Miss. Harriet R"
        string_val: "Andersson, Miss. Ingeborg Constanzia"
        string_val: "Andersson, Miss. Sigrid Elisabeth"
        string_val: "Beane, Mr. Edward"
        string_val: "Douglas, Mr. Walter Donald"
        string_val: "Nicholson, Mr. Arthur Ernest"
        string_val: "Beane, Mrs. Edward (Ethel Clarke)"
        string_val: "Padro y Manent, Mr. Julian"
        string_val: "Goldsmith, Mr. Frank John"
        string_val: "Davies, Master. John Morgan Jr"
        string_val: "Thayer, Mr. John Borland Jr"
        string_val: "Sharp, Mr. Percival James R"
        string_val: "O\'Brien, Mr. Timothy"
        string_val: "Leeni, Mr. Fahim (\"Philip Zenni\")"
        string_val: "Ohman, Miss. Velin"
        string_val: "Wright, Mr. George"
        string_val: "Duff Gordon, Lady. (Lucille Christiana Sutherland) (\"Mrs Morgan\")"
        string_val: "Robbins, Mr. Victor"
        string_val: "Taussig, Mrs. Emil (Tillie Mandelbaum)"
        string_val: "de Messemaeker, Mrs. Guillaume Joseph (Emma)"
        string_val: "Morrow, Mr. Thomas Rowan"
        string_val: "Sivic, Mr. Husein"
        string_val: "Norman, Mr. Robert Douglas"
        string_val: "Simmons, Mr. John"
        string_val: "Meanwell, Miss. (Marion Ogden)"
        string_val: "Davies, Mr. Alfred J"
        string_val: "Stoytcheff, Mr. Ilia"
        string_val: "Palsson, Mrs. Nils (Alma Cornelia Berglund)"
        string_val: "Doharr, Mr. Tannous"
        string_val: "Jonsson, Mr. Carl"
        string_val: "Harris, Mr. George"
        string_val: "Appleton, Mrs. Edward Dale (Charlotte Lamson)"
        string_val: "Flynn, Mr. John Irwin (\"Irving\")"
        string_val: "Kelly, Miss. Mary"
        string_val: "Rush, Mr. Alfred George John"
        string_val: "Patchett, Mr. George"
        string_val: "Garside, Miss. Ethel"
        string_val: "Silvey, Mrs. William Baird (Alice Munger)"
        string_val: "Caram, Mrs. Joseph (Maria Elias)"
        string_val: "Jussila, Mr. Eiriik"
        string_val: "Christy, Miss. Julie Rachel"
        string_val: "Thayer, Mrs. John Borland (Marian Longstreth Morris)"
        string_val: "Downton, Mr. William James"
        string_val: "Ross, Mr. John Hugo"
        string_val: "Paulner, Mr. Uscher"
        string_val: "Taussig, Miss. Ruth"
        string_val: "Jarvis, Mr. John Denzil"
        string_val: "Frolicher-Stehli, Mr. Maxmillian"
        string_val: "Gilinski, Mr. Eliezer"
        string_val: "Murdlin, Mr. Joseph"
        string_val: "Rintamaki, Mr. Matti"
        string_val: "Stephenson, Mrs. Walter Bertram (Martha Eustis)"
        string_val: "Elsbury, Mr. William James"
        string_val: "Bourke, Miss. Mary"
        string_val: "Chapman, Mr. John Henry"
        string_val: "Van Impe, Mr. Jean Baptiste"
        string_val: "Leitch, Miss. Jessie Wills"
        string_val: "Johnson, Mr. Alfred"
        string_val: "Boulos, Mr. Hanna"
        string_val: "Duff Gordon, Sir. Cosmo Edmund (\"Mr Morgan\")"
        string_val: "Jacobsohn, Mrs. Sidney Samuel (Amy Frances Christy)"
        string_val: "Slabenoff, Mr. Petco"
        string_val: "Harrington, Mr. Charles H"
        string_val: "Torber, Mr. Ernst William"
        string_val: "Homer, Mr. Harry (\"Mr E Haven\")"
        string_val: "Lindell, Mr. Edvard Bengtsson"
        string_val: "Karaic, Mr. Milan"
        string_val: "Daniel, Mr. Robert Williams"
        string_val: "Laroche, Mrs. Joseph (Juliette Marie Louise Lafargue)"
        string_val: "Shutes, Miss. Elizabeth W"
        string_val: "Andersson, Mrs. Anders Johan (Alfrida Konstantia Brogren)"
        string_val: "Jardin, Mr. Jose Neto"
        string_val: "Murphy, Miss. Margaret Jane"
        string_val: "Horgan, Mr. John"
        string_val: "Brocklebank, Mr. William Alfred"
        string_val: "Herman, Miss. Alice"
        string_val: "Danbom, Mr. Ernst Gilbert"
        string_val: "Lobb, Mrs. William Arthur (Cordelia K Stanlick)"
        string_val: "Becker, Miss. Marion Louise"
        string_val: "Gavey, Mr. Lawrence"
        string_val: "Yasbeck, Mr. Antoni"
        string_val: "Kimball, Mr. Edwin Nelson Jr"
        string_val: "Nakid, Mr. Sahid"
        string_val: "Hansen, Mr. Henry Damsgaard"
        string_val: "Bowen, Mr. David John \"Dai\""
        string_val: "Sutton, Mr. Frederick"
        string_val: "Kirkland, Rev. Charles Leonard"
        string_val: "Longley, Miss. Gretchen Fiske"
        string_val: "Bostandyeff, Mr. Guentcho"
        string_val: "O\'Connell, Mr. Patrick D"
        string_val: "Barkworth, Mr. Algernon Henry Wilson"
        string_val: "Lundahl, Mr. Johan Svensson"
        string_val: "Stahelin-Maeglin, Dr. Max"
        string_val: "Parr, Mr. William Henry Marsh"
        string_val: "Skoog, Miss. Mabel"
        string_val: "Davis, Miss. Mary"
        string_val: "Leinonen, Mr. Antti Gustaf"
        string_val: "Collyer, Mr. Harvey"
        string_val: "Panula, Mrs. Juha (Maria Emilia Ojala)"
        string_val: "Thorneycroft, Mr. Percival"
        string_val: "Jensen, Mr. Hans Peder"
        string_val: "Sagesser, Mlle. Emma"
        string_val: "Skoog, Miss. Margit Elizabeth"
        string_val: "Foo, Mr. Choong"
        string_val: "Baclini, Miss. Eugenie"
        string_val: "Harper, Mr. Henry Sleeper"
        string_val: "Cor, Mr. Liudevit"
        string_val: "Simonius-Blumer, Col. Oberst Alfons"
        string_val: "Willey, Mr. Edward"
        string_val: "Stanley, Miss. Amy Zillah Elsie"
        string_val: "Mitkoff, Mr. Mito"
        string_val: "Doling, Miss. Elsie"
        string_val: "Kalvik, Mr. Johannes Halvorsen"
        string_val: "O\'Leary, Miss. Hanora \"Norah\""
        string_val: "Hegarty, Miss. Hanora \"Nora\""
        string_val: "Hickman, Mr. Leonard Mark"
      }
    }
  }
}
node {
  name: "normalize_element/component_5"
  op: "Const"
  device: "/device:CPU:0"
  attr {
    key: "_output_shapes"
    value {
      list {
        shape {
          dim {
            size: 655
          }
        }
      }
    }
  }
  attr {
    key: "dtype"
    value {
      type: DT_INT64
    }
  }
  attr {
    key: "value"
    value {
      tensor {
        dtype: DT_INT64
        tensor_shape {
          dim {
            size: 655
          }
        }
        tensor_content: "…"
      }
    }
  }
}
node {
  name: "normalize_element/component_6"
  op: "Const"
  device: "/device:CPU:0"
  attr {
    key: "_output_shapes"
    value {
      list {
        shape {
          dim {
            size: 655
          }
        }
      }
    }
  }
  attr {
    key: "dtype"
    value {
      type: DT_INT64
    }
  }
  attr {
    key: "value"
    value {
      tensor {
        dtype: DT_INT64
        tensor_shape {
          dim {
            size: 655
          }
        }
        tensor_content: "…"
      }
    }
  }
}
node {
  name: "normalize_element/component_7"
  op: "Const"
  device: "/device:CPU:0"
  attr {
    key: "_output_shapes"
    value {
      list {
        shape {
          dim {
            size: 655
          }
        }
      }
    }
  }
  attr {
    key: "dtype"
    value {
      type: DT_INT64
    }
  }
  attr {
    key: "value"
    value {
      tensor {
        dtype: DT_INT64
        tensor_shape {
          dim {
            size: 655
          }
        }
        tensor_content: "…"
      }
    }
  }
}
node {
  name: "normalize_element/component_8"
  op: "Const"
  device: "/device:CPU:0"
  attr {
    key: "_output_shapes"
    value {
      list {
        shape {
          dim {
            size: 655
          }
        }
      }
    }
  }
  attr {
    key: "dtype"
    value {
      type: DT_STRING
    }
  }
  attr {
    key: "value"
    value {
      tensor {
        dtype: DT_STRING
        tensor_shape {
          dim {
            size: 655
          }
        }
        string_val: "female"
        string_val: "female"
        string_val: "female"
        string_val: "male"
        string_val: "male"
        string_val: "male"
        string_val: "male"
        string_val: "female"
        string_val: "female"
        string_val: "female"
        string_val: "female"
        string_val: "male"
        string_val: "male"
        string_val: "female"
        string_val: "female"
        string_val: "male"
        string_val: "male"
        string_val: "female"
        string_val: "female"
        string_val: "male"
        string_val: "male"
        string_val: "female"
        string_val: "male"
        string_val: "female"
        string_val: "female"
        string_val: "male"
        string_val: "male"
        string_val: "female"
        string_val: "male"
        string_val: "male"
        string_val: "female"
        string_val: "female"
        string_val: "male"
        string_val: "male"
        string_val: "male"
        string_val: "male"
        string_val: "male"
        string_val: "female"
        string_val: "female"
        string_val: "female"
        string_val: "female"
        string_val: "male"
        string_val: "female"
        string_val: "female"
        string_val: "male"
        string_val: "male"
        string_val: "female"
        string_val: "male"
        string_val: "female"
        string_val: "male"
        string_val: "male"
        string_val: "female"
        string_val: "female"
        string_val: "male"
        string_val: "male"
        string_val: "female"
        string_val: "male"
        string_val: "female"
        string_val: "male"
        string_val: "male"
        string_val: "female"
        string_val: "male"
        string_val: "male"
        string_val: "male"
        string_val: "male"
        string_val: "female"
        string_val: "male"
        string_val: "female"
        string_val: "male"
        string_val: "male"
        string_val: "female"
        string_val: "male"
        string_val: "male"
        string_val: "male"
        string_val: "male"
        string_val: "male"
        string_val: "male"
        string_val: "male"
        string_val: "female"
        string_val: "male"
        string_val: "male"
        string_val: "female"
        string_val: "male"
        string_val: "female"
        string_val: "female"
        string_val: "male"
        string_val: "male"
        string_val: "female"
        string_val: "male"
        string_val: "male"
        string_val: "male"
        string_val: "male"
        string_val: "male"
        string_val: "male"
        string_val: "male"
        string_val: "male"
        string_val: "male"
        string_val: "female"
        string_val: "male"
        string_val: "female"
        string_val: "male"
        string_val: "male"
        string_val: "male"
        string_val: "male"
        string_val: "male"
        string_val: "female"
        string_val: "male"
        string_val: "male"
        string_val: "female"
        string_val: "male"
        string_val: "female"
        string_val: "male"
        string_val: "female"
        string_val: "female"
        string_val: "male"
        string_val: "male"
        string_val: "male"
        string_val: "male"
        string_val: "female"
        string_val: "male"
        string_val: "male"
        string_val: "male"
        string_val: "female"
        string_val: "male"
        string_val: "male"
        string_val: "male"
        string_val: "male"
        string_val: "female"
        string_val: "male"
        string_val: "male"
        string_val: "male"
        string_val: "female"
        string_val: "female"
        string_val: "male"
        string_val: "male"
        string_val: "female"
        string_val: "male"
        string_val: "male"
        string_val: "male"
        string_val: "female"
        string_val: "female"
        string_val: "female"
        string_val: "male"
        string_val: "male"
        string_val: "male"
        string_val: "male"
        string_val: "female"
        string_val: "male"
        string_val: "male"
        string_val: "male"
        string_val: "female"
        string_val: "male"
        string_val: "male"
        string_val: "male"
        string_val: "male"
        string_val: "female"
        string_val: "male"
        string_val: "male"
        string_val: "male"
        string_val: "male"
        string_val: "female"
        string_val: "male"
        string_val: "male"
        string_val: "male"
        string_val: "male"
        string_val: "female"
        string_val: "female"
        string_val: "male"
        string_val: "male"
        string_val: "male"
        string_val: "male"
        string_val: "female"
        string_val: "male"
        string_val: "male"
        string_val: "male"
        string_val: "male"
        string_val: "female"
        string_val: "male"
        string_val: "male"
        string_val: "female"
        string_val: "male"
        string_val: "male"
        string_val: "male"
        string_val: "female"
        string_val: "male"
        string_val: "female"
        string_val: "male"
        string_val: "male"
        string_val: "male"
        string_val: "female"
        string_val: "male"
        string_val: "female"
        string_val: "male"
        string_val: "female"
        string_val: "female"
        string_val: "male"
        string_val: "male"
        string_val: "female"
        string_val: "female"
        string_val: "male"
        string_val: "male"
        string_val: "male"
        string_val: "male"
        string_val: "male"
        string_val: "female"
        string_val: "male"
        string_val: "male"
        string_val: "female"
        string_val: "male"
        string_val: "male"
        string_val: "female"
        string_val: "male"
        string_val: "male"
        string_val: "male"
        string_val: "female"
        string_val: "female"
        string_val: "male"
        string_val: "female"
        string_val: "male"
        string_val: "male"
        string_val: "male"
        string_val: "male"
        string_val: "male"
        string_val: "male"
        string_val: "male"
        string_val: "male"
        string_val: "male"
        string_val: "male"
        string_val: "female"
        string_val: "female"
        string_val: "male"
        string_val: "male"
        string_val: "female"
        string_val: "male"
        string_val: "female"
        string_val: "male"
        string_val: "female"
        string_val: "male"
        string_val: "male"
        string_val: "female"
        string_val: "female"
        string_val: "male"
        string_val: "male"
        string_val: "male"
        string_val: "male"
        string_val: "female"
        string_val: "female"
        string_val: "male"
        string_val: "male"
        string_val: "male"
        string_val: "female"
        string_val: "male"
        string_val: "male"
        string_val: "female"
        string_val: "female"
        string_val: "female"
        string_val: "female"
        string_val: "female"
        string_val: "female"
        string_val: "male"
        string_val: "male"
        string_val: "male"
        string_val: "male"
        string_val: "female"
        string_val: "male"
        string_val: "male"
        string_val: "male"
        string_val: "female"
        string_val: "female"
        string_val: "male"
        string_val: "male"
        string_val: "female"
        string_val: "male"
        string_val: "female"
        string_val: "female"
        string_val: "female"
        string_val: "male"
        string_val: "male"
        string_val: "female"
        string_val: "male"
        string_val: "male"
        string_val: "male"
        string_val: "male"
        string_val: "male"
        string_val: "male"
        string_val: "male"
        string_val: "male"
        string_val: "male"
        string_val: "female"
        string_val: "female"
        string_val: "female"
        string_val: "male"
        string_val: "female"
        string_val: "male"
        string_val: "male"
        string_val: "male"
        string_val: "female"
        string_val: "male"
        string_val: "female"
        string_val: "female"
        string_val: "male"
        string_val: "male"
        string_val: "female"
        string_val: "male"
        string_val: "male"
        string_val: "female"
        string_val: "female"
        string_val: "male"
        string_val: "female"
        string_val: "female"
        string_val: "female"
        string_val: "female"
        string_val: "male"
        string_val: "male"
        string_val: "female"
        string_val: "female"
        string_val: "male"
        string_val: "female"
        string_val: "female"
        string_val: "male"
        string_val: "male"
        string_val: "female"
        string_val: "female"
        string_val: "male"
        string_val: "female"
        string_val: "male"
        string_val: "female"
        string_val: "female"
        string_val: "female"
        string_val: "female"
        string_val: "male"
        string_val: "male"
        string_val: "male"
        string_val: "female"
        string_val: "male"
        string_val: "male"
        string_val: "female"
        string_val: "male"
        string_val: "male"
        string_val: "male"
        string_val: "female"
        string_val: "male"
        string_val: "male"
        string_val: "male"
        string_val: "female"
        string_val: "female"
        string_val: "female"
        string_val: "male"
        string_val: "male"
        string_val: "male"
        string_val: "male"
        string_val: "male"
        string_val: "male"
        string_val: "male"
        string_val: "male"
        string_val: "female"
        string_val: "female"
        string_val: "female"
        string_val: "female"
        string_val: "male"
        string_val: "male"
        string_val: "female"
        string_val: "male"
        string_val: "male"
        string_val: "male"
        string_val: "female"
        string_val: "female"
        string_val: "female"
        string_val: "female"
        string_val: "male"
        string_val: "male"
        string_val: "male"
        string_val: "male"
        string_val: "female"
        string_val: "female"
        string_val: "female"
        string_val: "male"
        string_val: "male"
        string_val: "male"
        string_val: "female"
        string_val: "female"
        string_val: "male"
        string_val: "female"
        string_val: "male"
        string_val: "male"
        string_val: "male"
        string_val: "female"
        string_val: "male"
        string_val: "female"
        string_val: "male"
        string_val: "male"
        string_val: "male"
        string_val: "female"
        string_val: "female"
        string_val: "male"
        string_val: "female"
        string_val: "male"
        string_val: "male"
        string_val: "female"
        string_val: "male"
        string_val: "male"
        string_val: "female"
        string_val: "male"
        string_val: "female"
        string_val: "male"
        string_val: "male"
        string_val: "male"
        string_val: "male"
        string_val: "female"
        string_val: "male"
        string_val: "male"
        string_val: "female"
        string_val: "male"
        string_val: "male"
        string_val: "female"
        string_val: "female"
        string_val: "female"
        string_val: "male"
        string_val: "female"
        string_val: "male"
        string_val: "male"
        string_val: "male"
        string_val: "female"
        string_val: "male"
        string_val: "male"
        string_val: "female"
        string_val: "female"
        string_val: "male"
        string_val: "male"
        string_val: "male"
        string_val: "female"
        string_val: "female"
        string_val: "male"
        string_val: "male"
        string_val: "female"
        string_val: "female"
        string_val: "female"
        string_val: "male"
        string_val: "male"
        string_val: "female"
        string_val: "male"
        string_val: "male"
        string_val: "female"
        string_val: "male"
        string_val: "male"
        string_val: "female"
        string_val: "male"
        string_val: "female"
        string_val: "male"
        string_val: "male"
        string_val: "male"
        string_val: "male"
        string_val: "male"
        string_val: "male"
        string_val: "male"
        string_val: "male"
        string_val: "female"
        string_val: "female"
        string_val: "male"
        string_val: "male"
        string_val: "male"
        string_val: "male"
        string_val: "male"
        string_val: "male"
        string_val: "male"
        string_val: "male"
        string_val: "male"
        string_val: "male"
        string_val: "female"
        string_val: "male"
        string_val: "male"
        string_val: "female"
        string_val: "female"
        string_val: "female"
        string_val: "male"
        string_val: "male"
        string_val: "male"
        string_val: "male"
        string_val: "female"
        string_val: "male"
        string_val: "male"
        string_val: "male"
        string_val: "female"
        string_val: "male"
        string_val: "female"
        string_val: "female"
        string_val: "male"
        string_val: "male"
        string_val: "male"
        string_val: "male"
        string_val: "male"
        string_val: "male"
        string_val: "male"
        string_val: "male"
        string_val: "male"
        string_val: "female"
        string_val: "male"
        string_val: "female"
        string_val: "male"
        string_val: "male"
        string_val: "female"
        string_val: "female"
        string_val: "female"
        string_val: "female"
        string_val: "male"
        string_val: "female"
        string_val: "male"
        string_val: "male"
        string_val: "male"
        string_val: "male"
        string_val: "male"
        string_val: "male"
        string_val: "female"
        string_val: "male"
        string_val: "male"
        string_val: "female"
        string_val: "male"
        string_val: "female"
        string_val: "male"
        string_val: "female"
        string_val: "male"
        string_val: "male"
        string_val: "female"
        string_val: "male"
        string_val: "male"
        string_val: "female"
        string_val: "male"
        string_val: "male"
        string_val: "male"
        string_val: "female"
        string_val: "male"
        string_val: "male"
        string_val: "female"
        string_val: "female"
        string_val: "female"
        string_val: "male"
        string_val: "female"
        string_val: "male"
        string_val: "female"
        string_val: "female"
        string_val: "female"
        string_val: "female"
        string_val: "male"
        string_val: "male"
        string_val: "male"
        string_val: "female"
        string_val: "male"
        string_val: "male"
        string_val: "male"
        string_val: "male"
        string_val: "male"
        string_val: "male"
        string_val: "male"
        string_val: "female"
        string_val: "male"
        string_val: "female"
        string_val: "male"
        string_val: "female"
        string_val: "female"
        string_val: "male"
        string_val: "male"
        string_val: "male"
        string_val: "male"
        string_val: "female"
        string_val: "male"
        string_val: "male"
        string_val: "female"
        string_val: "male"
        string_val: "male"
        string_val: "male"
        string_val: "female"
        string_val: "male"
        string_val: "female"
        string_val: "male"
        string_val: "male"
        string_val: "female"
        string_val: "female"
        string_val: "female"
        string_val: "male"
        string_val: "female"
        string_val: "female"
        string_val: "male"
        string_val: "male"
        string_val: "male"
        string_val: "female"
        string_val: "male"
        string_val: "male"
        string_val: "male"
        string_val: "male"
        string_val: "male"
        string_val: "female"
        string_val: "male"
        string_val: "female"
        string_val: "male"
        string_val: "male"
        string_val: "female"
        string_val: "male"
        string_val: "male"
        string_val: "male"
        string_val: "female"
        string_val: "male"
        string_val: "male"
        string_val: "male"
        string_val: "male"
        string_val: "male"
        string_val: "male"
        string_val: "male"
        string_val: "female"
        string_val: "female"
        string_val: "female"
        string_val: "male"
        string_val: "female"
        string_val: "male"
        string_val: "male"
        string_val: "female"
        string_val: "male"
        string_val: "female"
        string_val: "female"
        string_val: "male"
        string_val: "male"
        string_val: "male"
        string_val: "male"
        string_val: "male"
        string_val: "male"
        string_val: "male"
        string_val: "male"
        string_val: "female"
        string_val: "male"
        string_val: "male"
        string_val: "male"
        string_val: "male"
        string_val: "male"
        string_val: "male"
        string_val: "female"
        string_val: "female"
        string_val: "male"
        string_val: "male"
        string_val: "female"
        string_val: "male"
        string_val: "male"
        string_val: "female"
        string_val: "female"
        string_val: "male"
        string_val: "female"
        string_val: "male"
        string_val: "male"
        string_val: "male"
        string_val: "male"
        string_val: "female"
        string_val: "male"
        string_val: "female"
        string_val: "male"
        string_val: "female"
        string_val: "female"
        string_val: "male"
      }
    }
  }
}
node {
  name: "normalize_element/component_9"
  op: "Const"
  device: "/device:CPU:0"
  attr {
    key: "_output_shapes"
    value {
      list {
        shape {
          dim {
            size: 655
          }
        }
      }
    }
  }
  attr {
    key: "dtype"
    value {
      type: DT_INT64
    }
  }
  attr {
    key: "value"
    value {
      tensor {
        dtype: DT_INT64
        tensor_shape {
          dim {
            size: 655
          }
        }
        tensor_content: "…"
      }
    }
  }
}
node {
  name: "normalize_element/component_10"
  op: "Const"
  device: "/device:CPU:0"
  attr {
    key: "_output_shapes"
    value {
      list {
        shape {
          dim {
            size: 655
          }
        }
      }
    }
  }
  attr {
    key: "dtype"
    value {
      type: DT_STRING
    }
  }
  attr {
    key: "value"
    value {
      tensor {
        dtype: DT_STRING
        tensor_shape {
          dim {
            size: 655
          }
        }
        string_val: "PC 17599"
        string_val: "STON/O2. 3101282"
        string_val: "113803"
        string_val: "373450"
        string_val: "330877"
        string_val: "17463"
        string_val: "349909"
        string_val: "347742"
        string_val: "237736"
        string_val: "PP 9549"
        string_val: "113783"
        string_val: "A/5. 2151"
        string_val: "347082"
        string_val: "350406"
        string_val: "248706"
        string_val: "382652"
        string_val: "244373"
        string_val: "345763"
        string_val: "2649"
        string_val: "239865"
        string_val: "248698"
        string_val: "330923"
        string_val: "113788"
        string_val: "349909"
        string_val: "347077"
        string_val: "2631"
        string_val: "19950"
        string_val: "330959"
        string_val: "349216"
        string_val: "PC 17601"
        string_val: "PC 17569"
        string_val: "335677"
        string_val: "C.A. 24579"
        string_val: "PC 17604"
        string_val: "113789"
        string_val: "2677"
        string_val: "A./5. 2152"
        string_val: "345764"
        string_val: "2651"
        string_val: "7546"
        string_val: "11668"
        string_val: "349253"
        string_val: "SC/Paris 2123"
        string_val: "330958"
        string_val: "S.C./A.4. 23567"
        string_val: "370371"
        string_val: "14311"
        string_val: "2662"
        string_val: "349237"
        string_val: "3101295"
        string_val: "A/4. 39886"
        string_val: "PC 17572"
        string_val: "2926"
        string_val: "113509"
        string_val: "19947"
        string_val: "C.A. 31026"
        string_val: "2697"
        string_val: "C.A. 34651"
        string_val: "CA 2144"
        string_val: "2669"
        string_val: "113572"
        string_val: "36973"
        string_val: "347088"
        string_val: "PC 17605"
        string_val: "2661"
        string_val: "C.A. 29395"
        string_val: "S.P. 3464"
        string_val: "3101281"
        string_val: "315151"
        string_val: "C.A. 33111"
        string_val: "CA 2144"
        string_val: "S.O.C. 14879"
        string_val: "2680"
        string_val: "1601"
        string_val: "348123"
        string_val: "349208"
        string_val: "374746"
        string_val: "248738"
        string_val: "364516"
        string_val: "345767"
        string_val: "345779"
        string_val: "330932"
        string_val: "113059"
        string_val: "SO/C 14885"
        string_val: "3101278"
        string_val: "W./C. 6608"
        string_val: "SOTON/OQ 392086"
        string_val: "19950"
        string_val: "343275"
        string_val: "343276"
        string_val: "347466"
        string_val: "W.E.P. 5734"
        string_val: "C.A. 2315"
        string_val: "364500"
        string_val: "374910"
        string_val: "PC 17754"
        string_val: "PC 17759"
        string_val: "231919"
        string_val: "244367"
        string_val: "349245"
        string_val: "349215"
        string_val: "35281"
        string_val: "7540"
        string_val: "3101276"
        string_val: "349207"
        string_val: "343120"
        string_val: "312991"
        string_val: "349249"
        string_val: "371110"
        string_val: "110465"
        string_val: "2665"
        string_val: "324669"
        string_val: "4136"
        string_val: "2627"
        string_val: "STON/O 2. 3101294"
        string_val: "370369"
        string_val: "11668"
        string_val: "PC 17558"
        string_val: "347082"
        string_val: "S.O.C. 14879"
        string_val: "A4. 54510"
        string_val: "237736"
        string_val: "27267"
        string_val: "35281"
        string_val: "2651"
        string_val: "370372"
        string_val: "C 17369"
        string_val: "2668"
        string_val: "347061"
        string_val: "349241"
        string_val: "SOTON/O.Q. 3101307"
        string_val: "A/5. 3337"
        string_val: "228414"
        string_val: "C.A. 29178"
        string_val: "SC/PARIS 2133"
        string_val: "11752"
        string_val: "113803"
        string_val: "7534"
        string_val: "PC 17593"
        string_val: "2678"
        string_val: "347081"
        string_val: "STON/O2. 3101279"
        string_val: "365222"
        string_val: "231945"
        string_val: "C.A. 33112"
        string_val: "350043"
        string_val: "W./C. 6608"
        string_val: "230080"
        string_val: "244310"
        string_val: "S.O.P. 1166"
        string_val: "113776"
        string_val: "A.5. 11206"
        string_val: "A/5. 851"
        string_val: "Fa 265302"
        string_val: "PC 17597"
        string_val: "35851"
        string_val: "SOTON/OQ 392090"
        string_val: "315037"
        string_val: "CA. 2343"
        string_val: "371362"
        string_val: "C.A. 33595"
        string_val: "347068"
        string_val: "315093"
        string_val: "3101295"
        string_val: "363291"
        string_val: "113505"
        string_val: "347088"
        string_val: "PC 17318"
        string_val: "1601"
        string_val: "111240"
        string_val: "382652"
        string_val: "347742"
        string_val: "STON/O 2. 3101280"
        string_val: "17764"
        string_val: "350404"
        string_val: "4133"
        string_val: "PC 17595"
        string_val: "250653"
        string_val: "LINE"
        string_val: "CA. 2343"
        string_val: "SC/PARIS 2131"
        string_val: "347077"
        string_val: "230136"
        string_val: "315153"
        string_val: "113767"
        string_val: "370365"
        string_val: "111428"
        string_val: "364849"
        string_val: "349247"
        string_val: "234604"
        string_val: "28424"
        string_val: "350046"
        string_val: "230080"
        string_val: "PC 17610"
        string_val: "PC 17569"
        string_val: "368703"
        string_val: "4579"
        string_val: "370370"
        string_val: "248747"
        string_val: "345770"
        string_val: "CA. 2343"
        string_val: "3101264"
        string_val: "2628"
        string_val: "A/5 3540"
        string_val: "347054"
        string_val: "3101278"
        string_val: "2699"
        string_val: "367231"
        string_val: "112277"
        string_val: "SOTON/O.Q. 3101311"
        string_val: "F.C.C. 13528"
        string_val: "A/5 21174"
        string_val: "250646"
        string_val: "367229"
        string_val: "35273"
        string_val: "STON/O2. 3101283"
        string_val: "243847"
        string_val: "11813"
        string_val: "W/C 14208"
        string_val: "SOTON/OQ 392089"
        string_val: "220367"
        string_val: "21440"
        string_val: "349234"
        string_val: "19943"
        string_val: "PP 4348"
        string_val: "SW/PP 751"
        string_val: "A/5 21173"
        string_val: "236171"
        string_val: "4133"
        string_val: "36973"
        string_val: "347067"
        string_val: "237442"
        string_val: "347077"
        string_val: "C.A. 29566"
        string_val: "W./C. 6609"
        string_val: "26707"
        string_val: "C.A. 31921"
        string_val: "28665"
        string_val: "SCO/W 1585"
        string_val: "2665"
        string_val: "367230"
        string_val: "W./C. 14263"
        string_val: "STON/O 2. 3101275"
        string_val: "2694"
        string_val: "19928"
        string_val: "347071"
        string_val: "250649"
        string_val: "11751"
        string_val: "244252"
        string_val: "362316"
        string_val: "347054"
        string_val: "113514"
        string_val: "A/5. 3336"
        string_val: "370129"
        string_val: "2650"
        string_val: "PC 17585"
        string_val: "110152"
        string_val: "PC 17755"
        string_val: "230433"
        string_val: "384461"
        string_val: "347077"
        string_val: "110413"
        string_val: "112059"
        string_val: "382649"
        string_val: "C.A. 17248"
        string_val: "3101295"
        string_val: "347083"
        string_val: "PC 17582"
        string_val: "PC 17760"
        string_val: "113798"
        string_val: "LINE"
        string_val: "250644"
        string_val: "PC 17596"
        string_val: "370375"
        string_val: "13502"
        string_val: "347073"
        string_val: "239853"
        string_val: "382652"
        string_val: "C.A. 2673"
        string_val: "336439"
        string_val: "347464"
        string_val: "345778"
        string_val: "A/5. 10482"
        string_val: "113056"
        string_val: "349239"
        string_val: "345774"
        string_val: "349206"
        string_val: "237798"
        string_val: "370373"
        string_val: "19877"
        string_val: "11967"
        string_val: "SC/Paris 2163"
        string_val: "349236"
        string_val: "349233"
        string_val: "PC 17612"
        string_val: "2693"
        string_val: "113781"
        string_val: "19988"
        string_val: "PC 17558"
        string_val: "9234"
        string_val: "367226"
        string_val: "LINE"
        string_val: "226593"
        string_val: "A/5 2466"
        string_val: "113781"
        string_val: "17421"
        string_val: "PC 17758"
        string_val: "P/PP 3381"
        string_val: "PC 17485"
        string_val: "11767"
        string_val: "PC 17608"
        string_val: "250651"
        string_val: "349243"
        string_val: "F.C.C. 13529"
        string_val: "347470"
        string_val: "244367"
        string_val: "29011"
        string_val: "36928"
        string_val: "16966"
        string_val: "A/5 21172"
        string_val: "349219"
        string_val: "234818"
        string_val: "248738"
        string_val: "CA. 2343"
        string_val: "PC 17760"
        string_val: "345364"
        string_val: "28551"
        string_val: "363291"
        string_val: "111361"
        string_val: "367226"
        string_val: "113043"
        string_val: "PC 17582"
        string_val: "345764"
        string_val: "PC 17611"
        string_val: "349225"
        string_val: "113776"
        string_val: "16966"
        string_val: "7598"
        string_val: "113784"
        string_val: "230080"
        string_val: "19950"
        string_val: "248740"
        string_val: "244361"
        string_val: "229236"
        string_val: "248733"
        string_val: "31418"
        string_val: "386525"
        string_val: "C.A. 37671"
        string_val: "315088"
        string_val: "7267"
        string_val: "113510"
        string_val: "2695"
        string_val: "349237"
        string_val: "2647"
        string_val: "345783"
        string_val: "113505"
        string_val: "237671"
        string_val: "330931"
        string_val: "330980"
        string_val: "347088"
        string_val: "SC/PARIS 2167"
        string_val: "2691"
        string_val: "SOTON/O.Q. 3101310"
        string_val: "370365"
        string_val: "C 7076"
        string_val: "110813"
        string_val: "2626"
        string_val: "14313"
        string_val: "PC 17477"
        string_val: "11765"
        string_val: "3101267"
        string_val: "323951"
        string_val: "PC 17760"
        string_val: "349909"
        string_val: "PC 17604"
        string_val: "C 7077"
        string_val: "113503"
        string_val: "2648"
        string_val: "347069"
        string_val: "PC 17757"
        string_val: "2653"
        string_val: "STON/O 2. 3101293"
        string_val: "113789"
        string_val: "349227"
        string_val: "S.O.C. 14879"
        string_val: "CA 2144"
        string_val: "27849"
        string_val: "367655"
        string_val: "SC 1748"
        string_val: "113760"
        string_val: "350034"
        string_val: "3101277"
        string_val: "35273"
        string_val: "PP 9549"
        string_val: "350052"
        string_val: "350407"
        string_val: "28403"
        string_val: "244278"
        string_val: "240929"
        string_val: "STON/O 2. 3101289"
        string_val: "341826"
        string_val: "4137"
        string_val: "STON/O2. 3101279"
        string_val: "315096"
        string_val: "28664"
        string_val: "347064"
        string_val: "29106"
        string_val: "312992"
        string_val: "4133"
        string_val: "349222"
        string_val: "394140"
        string_val: "19928"
        string_val: "239853"
        string_val: "STON/O 2. 3101269"
        string_val: "343095"
        string_val: "28220"
        string_val: "250652"
        string_val: "28228"
        string_val: "345773"
        string_val: "349254"
        string_val: "A/5. 13032"
        string_val: "315082"
        string_val: "347080"
        string_val: "370129"
        string_val: "A/4. 34244"
        string_val: "2003"
        string_val: "250655"
        string_val: "364851"
        string_val: "SOTON/O.Q. 392078"
        string_val: "110564"
        string_val: "376564"
        string_val: "SC/AH 3085"
        string_val: "STON/O 2. 3101274"
        string_val: "13507"
        string_val: "113760"
        string_val: "W./C. 6608"
        string_val: "29106"
        string_val: "19950"
        string_val: "C.A. 18723"
        string_val: "F.C.C. 13529"
        string_val: "345769"
        string_val: "347076"
        string_val: "230434"
        string_val: "65306"
        string_val: "33638"
        string_val: "250644"
        string_val: "113794"
        string_val: "2666"
        string_val: "113786"
        string_val: "C.A. 34651"
        string_val: "65303"
        string_val: "113051"
        string_val: "17453"
        string_val: "A/5 2817"
        string_val: "349240"
        string_val: "13509"
        string_val: "17464"
        string_val: "F.C.C. 13531"
        string_val: "371060"
        string_val: "19952"
        string_val: "364506"
        string_val: "111320"
        string_val: "234360"
        string_val: "A/S 2816"
        string_val: "SOTON/O.Q. 3101306"
        string_val: "239853"
        string_val: "113792"
        string_val: "36209"
        string_val: "2666"
        string_val: "323592"
        string_val: "315089"
        string_val: "C.A. 34651"
        string_val: "SC/AH Basle 541"
        string_val: "7553"
        string_val: "110465"
        string_val: "31027"
        string_val: "3460"
        string_val: "350060"
        string_val: "3101298"
        string_val: "CA 2144"
        string_val: "239854"
        string_val: "A/5 3594"
        string_val: "4134"
        string_val: "11967"
        string_val: "4133"
        string_val: "19943"
        string_val: "11771"
        string_val: "A.5. 18509"
        string_val: "C.A. 37671"
        string_val: "65304"
        string_val: "SOTON/OQ 3101317"
        string_val: "113787"
        string_val: "PC 17609"
        string_val: "A/4 45380"
        string_val: "2627"
        string_val: "36947"
        string_val: "C.A. 6212"
        string_val: "113781"
        string_val: "350035"
        string_val: "315086"
        string_val: "364846"
        string_val: "330909"
        string_val: "4135"
        string_val: "110152"
        string_val: "PC 17758"
        string_val: "26360"
        string_val: "111427"
        string_val: "C 4001"
        string_val: "1601"
        string_val: "382651"
        string_val: "SOTON/OQ 3101316"
        string_val: "PC 17473"
        string_val: "PC 17603"
        string_val: "349209"
        string_val: "36967"
        string_val: "C.A. 34260"
        string_val: "371110"
        string_val: "226875"
        string_val: "349242"
        string_val: "12749"
        string_val: "349252"
        string_val: "2624"
        string_val: "111361"
        string_val: "2700"
        string_val: "367232"
        string_val: "W./C. 14258"
        string_val: "PC 17483"
        string_val: "3101296"
        string_val: "29104"
        string_val: "26360"
        string_val: "2641"
        string_val: "2690"
        string_val: "2668"
        string_val: "315084"
        string_val: "F.C.C. 13529"
        string_val: "113050"
        string_val: "PC 17761"
        string_val: "364498"
        string_val: "13568"
        string_val: "WE/P 5735"
        string_val: "347082"
        string_val: "347082"
        string_val: "2908"
        string_val: "PC 17761"
        string_val: "693"
        string_val: "2908"
        string_val: "SC/PARIS 2146"
        string_val: "363291"
        string_val: "C.A. 33112"
        string_val: "17421"
        string_val: "244358"
        string_val: "330979"
        string_val: "2620"
        string_val: "347085"
        string_val: "113807"
        string_val: "11755"
        string_val: "PC 17757"
        string_val: "110413"
        string_val: "345572"
        string_val: "372622"
        string_val: "349251"
        string_val: "218629"
        string_val: "SOTON/OQ 392082"
        string_val: "SOTON/O.Q. 392087"
        string_val: "A/4 48871"
        string_val: "349205"
        string_val: "349909"
        string_val: "2686"
        string_val: "350417"
        string_val: "S.W./PP 752"
        string_val: "11769"
        string_val: "PC 17474"
        string_val: "14312"
        string_val: "A/4. 20589"
        string_val: "358585"
        string_val: "243880"
        string_val: "13507"
        string_val: "2689"
        string_val: "STON/O 2. 3101286"
        string_val: "237789"
        string_val: "17421"
        string_val: "28403"
        string_val: "13049"
        string_val: "3411"
        string_val: "110413"
        string_val: "237565"
        string_val: "13567"
        string_val: "14973"
        string_val: "A./5. 3235"
        string_val: "STON/O 2. 3101273"
        string_val: "36947"
        string_val: "A/5 3902"
        string_val: "364848"
        string_val: "SC/AH 29037"
        string_val: "345773"
        string_val: "248727"
        string_val: "LINE"
        string_val: "2664"
        string_val: "PC 17485"
        string_val: "243847"
        string_val: "349214"
        string_val: "113796"
        string_val: "364511"
        string_val: "111426"
        string_val: "349910"
        string_val: "349246"
        string_val: "113804"
        string_val: "SC/Paris 2123"
        string_val: "PC 17582"
        string_val: "347082"
        string_val: "SOTON/O.Q. 3101305"
        string_val: "367230"
        string_val: "370377"
        string_val: "364512"
        string_val: "220845"
        string_val: "347080"
        string_val: "A/5. 3336"
        string_val: "230136"
        string_val: "31028"
        string_val: "2659"
        string_val: "11753"
        string_val: "2653"
        string_val: "350029"
        string_val: "54636"
        string_val: "36963"
        string_val: "219533"
        string_val: "13502"
        string_val: "349224"
        string_val: "334912"
        string_val: "27042"
        string_val: "347743"
        string_val: "13214"
        string_val: "112052"
        string_val: "347088"
        string_val: "237668"
        string_val: "STON/O 2. 3101292"
        string_val: "C.A. 31921"
        string_val: "3101295"
        string_val: "376564"
        string_val: "350050"
        string_val: "PC 17477"
        string_val: "347088"
        string_val: "1601"
        string_val: "2666"
        string_val: "PC 17572"
        string_val: "349231"
        string_val: "13213"
        string_val: "S.O./P.P. 751"
        string_val: "CA. 2314"
        string_val: "349221"
        string_val: "231919"
        string_val: "8475"
        string_val: "330919"
        string_val: "365226"
        string_val: "S.O.C. 14879"
      }
    }
  }
}
node {
  name: "normalize_element/component_11"
  op: "Const"
  device: "/device:CPU:0"
  attr {
    key: "_output_shapes"
    value {
      list {
        shape {
          dim {
            size: 655
          }
        }
      }
    }
  }
  attr {
    key: "dtype"
    value {
      type: DT_INT64
    }
  }
  attr {
    key: "value"
    value {
      tensor {
        dtype: DT_INT64
        tensor_shape {
          dim {
            size: 655
          }
        }
        tensor_content: "…"
      }
    }
  }
}
node {
  name: "TensorSliceDataset"
  op: "TensorSliceDataset"
  input: "normalize_element/component_0"
  input: "normalize_element/component_1"
  input: "normalize_element/component_2"
  input: "normalize_element/component_3"
  input: "normalize_element/component_4"
  input: "normalize_element/component_5"
  input: "normalize_element/component_6"
  input: "normalize_element/component_7"
  input: "normalize_element/component_8"
  input: "normalize_element/component_9"
  input: "normalize_element/component_10"
  input: "normalize_element/component_11"
  device: "/device:CPU:0"
  attr {
    key: "Toutput_types"
    value {
      list {
        type: DT_DOUBLE
        type: DT_STRING
        type: DT_STRING
        type: DT_DOUBLE
        type: DT_STRING
        type: DT_INT64
        type: DT_INT64
        type: DT_INT64
        type: DT_STRING
        type: DT_INT64
        type: DT_STRING
        type: DT_INT64
      }
    }
  }
  attr {
    key: "_output_shapes"
    value {
      list {
        shape {
        }
      }
    }
  }
  attr {
    key: "output_shapes"
    value {
      list {
        shape {
        }
        shape {
        }
        shape {
        }
        shape {
        }
        shape {
        }
        shape {
        }
        shape {
        }
        shape {
        }
        shape {
        }
        shape {
        }
        shape {
        }
        shape {
        }
      }
    }
  }
}
node {
  name: "buffer_size"
  op: "Const"
  device: "/device:CPU:0"
  attr {
    key: "_output_shapes"
    value {
      list {
        shape {
        }
      }
    }
  }
  attr {
    key: "dtype"
    value {
      type: DT_INT64
    }
  }
  attr {
    key: "value"
    value {
      tensor {
        dtype: DT_INT64
        tensor_shape {
        }
        int64_val: 10000
      }
    }
  }
}
node {
  name: "seed"
  op: "Const"
  device: "/device:CPU:0"
  attr {
    key: "_output_shapes"
    value {
      list {
        shape {
        }
      }
    }
  }
  attr {
    key: "dtype"
    value {
      type: DT_INT64
    }
  }
  attr {
    key: "value"
    value {
      tensor {
        dtype: DT_INT64
        tensor_shape {
        }
        int64_val: 0
      }
    }
  }
}
node {
  name: "seed2"
  op: "Const"
  device: "/device:CPU:0"
  attr {
    key: "_output_shapes"
    value {
      list {
        shape {
        }
      }
    }
  }
  attr {
    key: "dtype"
    value {
      type: DT_INT64
    }
  }
  attr {
    key: "value"
    value {
      tensor {
        dtype: DT_INT64
        tensor_shape {
        }
        int64_val: 0
      }
    }
  }
}
node {
  name: "ShuffleDataset"
  op: "ShuffleDataset"
  input: "TensorSliceDataset"
  input: "buffer_size"
  input: "seed"
  input: "seed2"
  device: "/device:CPU:0"
  attr {
    key: "_output_shapes"
    value {
      list {
        shape {
        }
      }
    }
  }
  attr {
    key: "output_shapes"
    value {
      list {
        shape {
        }
        shape {
        }
        shape {
        }
        shape {
        }
        shape {
        }
        shape {
        }
        shape {
        }
        shape {
        }
        shape {
        }
        shape {
        }
        shape {
        }
        shape {
        }
      }
    }
  }
  attr {
    key: "output_types"
    value {
      list {
        type: DT_DOUBLE
        type: DT_STRING
        type: DT_STRING
        type: DT_DOUBLE
        type: DT_STRING
        type: DT_INT64
        type: DT_INT64
        type: DT_INT64
        type: DT_STRING
        type: DT_INT64
        type: DT_STRING
        type: DT_INT64
      }
    }
  }
  attr {
    key: "reshuffle_each_iteration"
    value {
      b: true
    }
  }
}
node {
  name: "count"
  op: "Const"
  device: "/device:CPU:0"
  attr {
    key: "_output_shapes"
    value {
      list {
        shape {
        }
      }
    }
  }
  attr {
    key: "dtype"
    value {
      type: DT_INT64
    }
  }
  attr {
    key: "value"
    value {
      tensor {
        dtype: DT_INT64
        tensor_shape {
        }
        int64_val: 100
      }
    }
  }
}
node {
  name: "RepeatDataset"
  op: "RepeatDataset"
  input: "ShuffleDataset"
  input: "count"
  device: "/device:CPU:0"
  attr {
    key: "_output_shapes"
    value {
      list {
        shape {
        }
      }
    }
  }
  attr {
    key: "output_shapes"
    value {
      list {
        shape {
        }
        shape {
        }
        shape {
        }
        shape {
        }
        shape {
        }
        shape {
        }
        shape {
        }
        shape {
        }
        shape {
        }
        shape {
        }
        shape {
        }
        shape {
        }
      }
    }
  }
  attr {
    key: "output_types"
    value {
      list {
        type: DT_DOUBLE
        type: DT_STRING
        type: DT_STRING
        type: DT_DOUBLE
        type: DT_STRING
        type: DT_INT64
        type: DT_INT64
        type: DT_INT64
        type: DT_STRING
        type: DT_INT64
        type: DT_STRING
        type: DT_INT64
      }
    }
  }
}
node {
  name: "batch_size"
  op: "Const"
  device: "/device:CPU:0"
  attr {
    key: "_output_shapes"
    value {
      list {
        shape {
        }
      }
    }
  }
  attr {
    key: "dtype"
    value {
      type: DT_INT64
    }
  }
  attr {
    key: "value"
    value {
      tensor {
        dtype: DT_INT64
        tensor_shape {
        }
        int64_val: 32
      }
    }
  }
}
node {
  name: "drop_remainder"
  op: "Const"
  device: "/device:CPU:0"
  attr {
    key: "_output_shapes"
    value {
      list {
        shape {
        }
      }
    }
  }
  attr {
    key: "dtype"
    value {
      type: DT_BOOL
    }
  }
  attr {
    key: "value"
    value {
      tensor {
        dtype: DT_BOOL
        tensor_shape {
        }
        bool_val: false
      }
    }
  }
}
node {
  name: "BatchDatasetV2"
  op: "BatchDatasetV2"
  input: "RepeatDataset"
  input: "batch_size"
  input: "drop_remainder"
  device: "/device:CPU:0"
  attr {
    key: "_output_shapes"
    value {
      list {
        shape {
        }
      }
    }
  }
  attr {
    key: "output_shapes"
    value {
      list {
        shape {
          dim {
            size: -1
          }
        }
        shape {
          dim {
            size: -1
          }
        }
        shape {
          dim {
            size: -1
          }
        }
        shape {
          dim {
            size: -1
          }
        }
        shape {
          dim {
            size: -1
          }
        }
        shape {
          dim {
            size: -1
          }
        }
        shape {
          dim {
            size: -1
          }
        }
        shape {
          dim {
            size: -1
          }
        }
        shape {
          dim {
            size: -1
          }
        }
        shape {
          dim {
            size: -1
          }
        }
        shape {
          dim {
            size: -1
          }
        }
        shape {
          dim {
            size: -1
          }
        }
      }
    }
  }
  attr {
    key: "output_types"
    value {
      list {
        type: DT_DOUBLE
        type: DT_STRING
        type: DT_STRING
        type: DT_DOUBLE
        type: DT_STRING
        type: DT_INT64
        type: DT_INT64
        type: DT_INT64
        type: DT_STRING
        type: DT_INT64
        type: DT_STRING
        type: DT_INT64
      }
    }
  }
  attr {
    key: "parallel_copy"
    value {
      b: false
    }
  }
}
node {
  name: "optimizations"
  op: "Const"
  attr {
    key: "_output_shapes"
    value {
      list {
        shape {
          dim {
            size: 3
          }
        }
      }
    }
  }
  attr {
    key: "dtype"
    value {
      type: DT_STRING
    }
  }
  attr {
    key: "value"
    value {
      tensor {
        dtype: DT_STRING
        tensor_shape {
          dim {
            size: 3
          }
        }
        string_val: "map_and_batch_fusion"
        string_val: "noop_elimination"
        string_val: "shuffle_and_repeat_fusion"
      }
    }
  }
}
node {
  name: "OptimizeDataset"
  op: "OptimizeDataset"
  input: "BatchDatasetV2"
  input: "optimizations"
  attr {
    key: "_output_shapes"
    value {
      list {
        shape {
        }
      }
    }
  }
  attr {
    key: "optimization_configs"
    value {
      list {
        s: "map_vectorization:use_choose_fastest:false"
      }
    }
  }
  attr {
    key: "output_shapes"
    value {
      list {
        shape {
          dim {
            size: -1
          }
        }
        shape {
          dim {
            size: -1
          }
        }
        shape {
          dim {
            size: -1
          }
        }
        shape {
          dim {
            size: -1
          }
        }
        shape {
          dim {
            size: -1
          }
        }
        shape {
          dim {
            size: -1
          }
        }
        shape {
          dim {
            size: -1
          }
        }
        shape {
          dim {
            size: -1
          }
        }
        shape {
          dim {
            size: -1
          }
        }
        shape {
          dim {
            size: -1
          }
        }
        shape {
          dim {
            size: -1
          }
        }
        shape {
          dim {
            size: -1
          }
        }
      }
    }
  }
  attr {
    key: "output_types"
    value {
      list {
        type: DT_DOUBLE
        type: DT_STRING
        type: DT_STRING
        type: DT_DOUBLE
        type: DT_STRING
        type: DT_INT64
        type: DT_INT64
        type: DT_INT64
        type: DT_STRING
        type: DT_INT64
        type: DT_STRING
        type: DT_INT64
      }
    }
  }
}
node {
  name: "ModelDataset"
  op: "ModelDataset"
  input: "OptimizeDataset"
  attr {
    key: "_output_shapes"
    value {
      list {
        shape {
        }
      }
    }
  }
  attr {
    key: "algorithm"
    value {
      i: 0
    }
  }
  attr {
    key: "cpu_budget"
    value {
      i: 0
    }
  }
  attr {
    key: "output_shapes"
    value {
      list {
        shape {
          dim {
            size: -1
          }
        }
        shape {
          dim {
            size: -1
          }
        }
        shape {
          dim {
            size: -1
          }
        }
        shape {
          dim {
            size: -1
          }
        }
        shape {
          dim {
            size: -1
          }
        }
        shape {
          dim {
            size: -1
          }
        }
        shape {
          dim {
            size: -1
          }
        }
        shape {
          dim {
            size: -1
          }
        }
        shape {
          dim {
            size: -1
          }
        }
        shape {
          dim {
            size: -1
          }
        }
        shape {
          dim {
            size: -1
          }
        }
        shape {
          dim {
            size: -1
          }
        }
      }
    }
  }
  attr {
    key: "output_types"
    value {
      list {
        type: DT_DOUBLE
        type: DT_STRING
        type: DT_STRING
        type: DT_DOUBLE
        type: DT_STRING
        type: DT_INT64
        type: DT_INT64
        type: DT_INT64
        type: DT_STRING
        type: DT_INT64
        type: DT_STRING
        type: DT_INT64
      }
    }
  }
}
node {
  name: "IteratorV2"
  op: "IteratorV2"
  attr {
    key: "_output_shapes"
    value {
      list {
        shape {
        }
      }
    }
  }
  attr {
    key: "container"
    value {
      s: ""
    }
  }
  attr {
    key: "output_shapes"
    value {
      list {
        shape {
          dim {
            size: -1
          }
        }
        shape {
          dim {
            size: -1
          }
        }
        shape {
          dim {
            size: -1
          }
        }
        shape {
          dim {
            size: -1
          }
        }
        shape {
          dim {
            size: -1
          }
        }
        shape {
          dim {
            size: -1
          }
        }
        shape {
          dim {
            size: -1
          }
        }
        shape {
          dim {
            size: -1
          }
        }
        shape {
          dim {
            size: -1
          }
        }
        shape {
          dim {
            size: -1
          }
        }
        shape {
          dim {
            size: -1
          }
        }
        shape {
          dim {
            size: -1
          }
        }
      }
    }
  }
  attr {
    key: "output_types"
    value {
      list {
        type: DT_DOUBLE
        type: DT_STRING
        type: DT_STRING
        type: DT_DOUBLE
        type: DT_STRING
        type: DT_INT64
        type: DT_INT64
        type: DT_INT64
        type: DT_STRING
        type: DT_INT64
        type: DT_STRING
        type: DT_INT64
      }
    }
  }
  attr {
    key: "shared_name"
    value {
      s: ""
    }
  }
}
node {
  name: "MakeIterator"
  op: "MakeIterator"
  input: "ModelDataset"
  input: "IteratorV2"
  attr {
    key: "_class"
    value {
      list {
        s: "loc:@IteratorV2"
      }
    }
  }
}
node {
  name: "IteratorToStringHandle"
  op: "IteratorToStringHandle"
  input: "IteratorV2"
  attr {
    key: "_output_shapes"
    value {
      list {
        shape {
        }
      }
    }
  }
}
node {
  name: "IteratorGetNext"
  op: "IteratorGetNext"
  input: "IteratorV2"
  attr {
    key: "_output_shapes"
    value {
      list {
        shape {
          dim {
            size: -1
          }
        }
        shape {
          dim {
            size: -1
          }
        }
        shape {
          dim {
            size: -1
          }
        }
        shape {
          dim {
            size: -1
          }
        }
        shape {
          dim {
            size: -1
          }
        }
        shape {
          dim {
            size: -1
          }
        }
        shape {
          dim {
            size: -1
          }
        }
        shape {
          dim {
            size: -1
          }
        }
        shape {
          dim {
            size: -1
          }
        }
        shape {
          dim {
            size: -1
          }
        }
        shape {
          dim {
            size: -1
          }
        }
        shape {
          dim {
            size: -1
          }
        }
      }
    }
  }
  attr {
    key: "output_shapes"
    value {
      list {
        shape {
          dim {
            size: -1
          }
        }
        shape {
          dim {
            size: -1
          }
        }
        shape {
          dim {
            size: -1
          }
        }
        shape {
          dim {
            size: -1
          }
        }
        shape {
          dim {
            size: -1
          }
        }
        shape {
          dim {
            size: -1
          }
        }
        shape {
          dim {
            size: -1
          }
        }
        shape {
          dim {
            size: -1
          }
        }
        shape {
          dim {
            size: -1
          }
        }
        shape {
          dim {
            size: -1
          }
        }
        shape {
          dim {
            size: -1
          }
        }
        shape {
          dim {
            size: -1
          }
        }
      }
    }
  }
  attr {
    key: "output_types"
    value {
      list {
        type: DT_DOUBLE
        type: DT_STRING
        type: DT_STRING
        type: DT_DOUBLE
        type: DT_STRING
        type: DT_INT64
        type: DT_INT64
        type: DT_INT64
        type: DT_STRING
        type: DT_INT64
        type: DT_STRING
        type: DT_INT64
      }
    }
  }
}
node {
  name: "dnn/Cast"
  op: "Cast"
  input: "IteratorGetNext"
  attr {
    key: "DstT"
    value {
      type: DT_FLOAT
    }
  }
  attr {
    key: "SrcT"
    value {
      type: DT_DOUBLE
    }
  }
  attr {
    key: "Truncate"
    value {
      b: false
    }
  }
  attr {
    key: "_output_shapes"
    value {
      list {
        shape {
          dim {
            size: -1
          }
        }
      }
    }
  }
}
node {
  name: "dnn/Cast_1"
  op: "Cast"
  input: "IteratorGetNext:3"
  attr {
    key: "DstT"
    value {
      type: DT_FLOAT
    }
  }
  attr {
    key: "SrcT"
    value {
      type: DT_DOUBLE
    }
  }
  attr {
    key: "Truncate"
    value {
      b: false
    }
  }
  attr {
    key: "_output_shapes"
    value {
      list {
        shape {
          dim {
            size: -1
          }
        }
      }
    }
  }
}
node {
  name: "dnn/input_from_feature_columns/input_layer/Age_1/ExpandDims/dim"
  op: "Const"
  attr {
    key: "_output_shapes"
    value {
      list {
        shape {
        }
      }
    }
  }
  attr {
    key: "dtype"
    value {
      type: DT_INT32
    }
  }
  attr {
    key: "value"
    value {
      tensor {
        dtype: DT_INT32
        tensor_shape {
        }
        int_val: -1
      }
    }
  }
}
node {
  name: "dnn/input_from_feature_columns/input_layer/Age_1/ExpandDims"
  op: "ExpandDims"
  input: "dnn/Cast"
  input: "dnn/input_from_feature_columns/input_layer/Age_1/ExpandDims/dim"
  attr {
    key: "T"
    value {
      type: DT_FLOAT
    }
  }
  attr {
    key: "Tdim"
    value {
      type: DT_INT32
    }
  }
  attr {
    key: "_output_shapes"
    value {
      list {
        shape {
          dim {
            size: -1
          }
          dim {
            size: 1
          }
        }
      }
    }
  }
}
node {
  name: "dnn/input_from_feature_columns/input_layer/Age_1/Shape"
  op: "Shape"
  input: "dnn/input_from_feature_columns/input_layer/Age_1/ExpandDims"
  attr {
    key: "T"
    value {
      type: DT_FLOAT
    }
  }
  attr {
    key: "_output_shapes"
    value {
      list {
        shape {
          dim {
            size: 2
          }
        }
      }
    }
  }
  attr {
    key: "out_type"
    value {
      type: DT_INT32
    }
  }
}
node {
  name: "dnn/input_from_feature_columns/input_layer/Age_1/strided_slice/stack"
  op: "Const"
  attr {
    key: "_output_shapes"
    value {
      list {
        shape {
          dim {
            size: 1
          }
        }
      }
    }
  }
  attr {
    key: "dtype"
    value {
      type: DT_INT32
    }
  }
  attr {
    key: "value"
    value {
      tensor {
        dtype: DT_INT32
        tensor_shape {
          dim {
            size: 1
          }
        }
        int_val: 0
      }
    }
  }
}
node {
  name: "dnn/input_from_feature_columns/input_layer/Age_1/strided_slice/stack_1"
  op: "Const"
  attr {
    key: "_output_shapes"
    value {
      list {
        shape {
          dim {
            size: 1
          }
        }
      }
    }
  }
  attr {
    key: "dtype"
    value {
      type: DT_INT32
    }
  }
  attr {
    key: "value"
    value {
      tensor {
        dtype: DT_INT32
        tensor_shape {
          dim {
            size: 1
          }
        }
        int_val: 1
      }
    }
  }
}
node {
  name: "dnn/input_from_feature_columns/input_layer/Age_1/strided_slice/stack_2"
  op: "Const"
  attr {
    key: "_output_shapes"
    value {
      list {
        shape {
          dim {
            size: 1
          }
        }
      }
    }
  }
  attr {
    key: "dtype"
    value {
      type: DT_INT32
    }
  }
  attr {
    key: "value"
    value {
      tensor {
        dtype: DT_INT32
        tensor_shape {
          dim {
            size: 1
          }
        }
        int_val: 1
      }
    }
  }
}
node {
  name: "dnn/input_from_feature_columns/input_layer/Age_1/strided_slice"
  op: "StridedSlice"
  input: "dnn/input_from_feature_columns/input_layer/Age_1/Shape"
  input: "dnn/input_from_feature_columns/input_layer/Age_1/strided_slice/stack"
  input: "dnn/input_from_feature_columns/input_layer/Age_1/strided_slice/stack_1"
  input: "dnn/input_from_feature_columns/input_layer/Age_1/strided_slice/stack_2"
  attr {
    key: "Index"
    value {
      type: DT_INT32
    }
  }
  attr {
    key: "T"
    value {
      type: DT_INT32
    }
  }
  attr {
    key: "_output_shapes"
    value {
      list {
        shape {
        }
      }
    }
  }
  attr {
    key: "begin_mask"
    value {
      i: 0
    }
  }
  attr {
    key: "ellipsis_mask"
    value {
      i: 0
    }
  }
  attr {
    key: "end_mask"
    value {
      i: 0
    }
  }
  attr {
    key: "new_axis_mask"
    value {
      i: 0
    }
  }
  attr {
    key: "shrink_axis_mask"
    value {
      i: 1
    }
  }
}
node {
  name: "dnn/input_from_feature_columns/input_layer/Age_1/Reshape/shape/1"
  op: "Const"
  attr {
    key: "_output_shapes"
    value {
      list {
        shape {
        }
      }
    }
  }
  attr {
    key: "dtype"
    value {
      type: DT_INT32
    }
  }
  attr {
    key: "value"
    value {
      tensor {
        dtype: DT_INT32
        tensor_shape {
        }
        int_val: 1
      }
    }
  }
}
node {
  name: "dnn/input_from_feature_columns/input_layer/Age_1/Reshape/shape"
  op: "Pack"
  input: "dnn/input_from_feature_columns/input_layer/Age_1/strided_slice"
  input: "dnn/input_from_feature_columns/input_layer/Age_1/Reshape/shape/1"
  attr {
    key: "N"
    value {
      i: 2
    }
  }
  attr {
    key: "T"
    value {
      type: DT_INT32
    }
  }
  attr {
    key: "_output_shapes"
    value {
      list {
        shape {
          dim {
            size: 2
          }
        }
      }
    }
  }
  attr {
    key: "axis"
    value {
      i: 0
    }
  }
}
node {
  name: "dnn/input_from_feature_columns/input_layer/Age_1/Reshape"
  op: "Reshape"
  input: "dnn/input_from_feature_columns/input_layer/Age_1/ExpandDims"
  input: "dnn/input_from_feature_columns/input_layer/Age_1/Reshape/shape"
  attr {
    key: "T"
    value {
      type: DT_FLOAT
    }
  }
  attr {
    key: "Tshape"
    value {
      type: DT_INT32
    }
  }
  attr {
    key: "_output_shapes"
    value {
      list {
        shape {
          dim {
            size: -1
          }
          dim {
            size: 1
          }
        }
      }
    }
  }
}
node {
  name: "dnn/input_from_feature_columns/input_layer/Embarked_indicator_1/ExpandDims/dim"
  op: "Const"
  attr {
    key: "_output_shapes"
    value {
      list {
        shape {
        }
      }
    }
  }
  attr {
    key: "dtype"
    value {
      type: DT_INT32
    }
  }
  attr {
    key: "value"
    value {
      tensor {
        dtype: DT_INT32
        tensor_shape {
        }
        int_val: -1
      }
    }
  }
}
node {
  name: "dnn/input_from_feature_columns/input_layer/Embarked_indicator_1/ExpandDims"
  op: "ExpandDims"
  input: "IteratorGetNext:2"
  input: "dnn/input_from_feature_columns/input_layer/Embarked_indicator_1/ExpandDims/dim"
  attr {
    key: "T"
    value {
      type: DT_STRING
    }
  }
  attr {
    key: "Tdim"
    value {
      type: DT_INT32
    }
  }
  attr {
    key: "_output_shapes"
    value {
      list {
        shape {
          dim {
            size: -1
          }
          dim {
            size: 1
          }
        }
      }
    }
  }
}
node {
  name: "dnn/input_from_feature_columns/input_layer/Embarked_indicator_1/to_sparse_input/ignore_value/x"
  op: "Const"
  attr {
    key: "_output_shapes"
    value {
      list {
        shape {
        }
      }
    }
  }
  attr {
    key: "dtype"
    value {
      type: DT_STRING
    }
  }
  attr {
    key: "value"
    value {
      tensor {
        dtype: DT_STRING
        tensor_shape {
        }
        string_val: ""
      }
    }
  }
}
node {
  name: "dnn/input_from_feature_columns/input_layer/Embarked_indicator_1/to_sparse_input/NotEqual"
  op: "NotEqual"
  input: "dnn/input_from_feature_columns/input_layer/Embarked_indicator_1/ExpandDims"
  input: "dnn/input_from_feature_columns/input_layer/Embarked_indicator_1/to_sparse_input/ignore_value/x"
  attr {
    key: "T"
    value {
      type: DT_STRING
    }
  }
  attr {
    key: "_output_shapes"
    value {
      list {
        shape {
          dim {
            size: -1
          }
          dim {
            size: 1
          }
        }
      }
    }
  }
  attr {
    key: "incompatible_shape_error"
    value {
      b: true
    }
  }
}
node {
  name: "dnn/input_from_feature_columns/input_layer/Embarked_indicator_1/to_sparse_input/indices"
  op: "Where"
  input: "dnn/input_from_feature_columns/input_layer/Embarked_indicator_1/to_sparse_input/NotEqual"
  attr {
    key: "T"
    value {
      type: DT_BOOL
    }
  }
  attr {
    key: "_output_shapes"
    value {
      list {
        shape {
          dim {
            size: -1
          }
          dim {
            size: 2
          }
        }
      }
    }
  }
}
node {
  name: "dnn/input_from_feature_columns/input_layer/Embarked_indicator_1/to_sparse_input/values"
  op: "GatherNd"
  input: "dnn/input_from_feature_columns/input_layer/Embarked_indicator_1/ExpandDims"
  input: "dnn/input_from_feature_columns/input_layer/Embarked_indicator_1/to_sparse_input/indices"
  attr {
    key: "Tindices"
    value {
      type: DT_INT64
    }
  }
  attr {
    key: "Tparams"
    value {
      type: DT_STRING
    }
  }
  attr {
    key: "_output_shapes"
    value {
      list {
        shape {
          dim {
            size: -1
          }
        }
      }
    }
  }
}
node {
  name: "dnn/input_from_feature_columns/input_layer/Embarked_indicator_1/to_sparse_input/dense_shape"
  op: "Shape"
  input: "dnn/input_from_feature_columns/input_layer/Embarked_indicator_1/ExpandDims"
  attr {
    key: "T"
    value {
      type: DT_STRING
    }
  }
  attr {
    key: "_output_shapes"
    value {
      list {
        shape {
          dim {
            size: 2
          }
        }
      }
    }
  }
  attr {
    key: "out_type"
    value {
      type: DT_INT64
    }
  }
}
node {
  name: "dnn/input_from_feature_columns/input_layer/Embarked_indicator_1/Embarked_lookup/Const"
  op: "Const"
  attr {
    key: "_output_shapes"
    value {
      list {
        shape {
          dim {
            size: 3
          }
        }
      }
    }
  }
  attr {
    key: "dtype"
    value {
      type: DT_STRING
    }
  }
  attr {
    key: "value"
    value {
      tensor {
        dtype: DT_STRING
        tensor_shape {
          dim {
            size: 3
          }
        }
        string_val: "C"
        string_val: "S"
        string_val: "Q"
      }
    }
  }
}
node {
  name: "dnn/input_from_feature_columns/input_layer/Embarked_indicator_1/Embarked_lookup/Size"
  op: "Const"
  attr {
    key: "_output_shapes"
    value {
      list {
        shape {
        }
      }
    }
  }
  attr {
    key: "dtype"
    value {
      type: DT_INT32
    }
  }
  attr {
    key: "value"
    value {
      tensor {
        dtype: DT_INT32
        tensor_shape {
        }
        int_val: 3
      }
    }
  }
}
node {
  name: "dnn/input_from_feature_columns/input_layer/Embarked_indicator_1/Embarked_lookup/range/start"
  op: "Const"
  attr {
    key: "_output_shapes"
    value {
      list {
        shape {
        }
      }
    }
  }
  attr {
    key: "dtype"
    value {
      type: DT_INT32
    }
  }
  attr {
    key: "value"
    value {
      tensor {
        dtype: DT_INT32
        tensor_shape {
        }
        int_val: 0
      }
    }
  }
}
node {
  name: "dnn/input_from_feature_columns/input_layer/Embarked_indicator_1/Embarked_lookup/range/delta"
  op: "Const"
  attr {
    key: "_output_shapes"
    value {
      list {
        shape {
        }
      }
    }
  }
  attr {
    key: "dtype"
    value {
      type: DT_INT32
    }
  }
  attr {
    key: "value"
    value {
      tensor {
        dtype: DT_INT32
        tensor_shape {
        }
        int_val: 1
      }
    }
  }
}
node {
  name: "dnn/input_from_feature_columns/input_layer/Embarked_indicator_1/Embarked_lookup/range"
  op: "Range"
  input: "dnn/input_from_feature_columns/input_layer/Embarked_indicator_1/Embarked_lookup/range/start"
  input: "dnn/input_from_feature_columns/input_layer/Embarked_indicator_1/Embarked_lookup/Size"
  input: "dnn/input_from_feature_columns/input_layer/Embarked_indicator_1/Embarked_lookup/range/delta"
  attr {
    key: "Tidx"
    value {
      type: DT_INT32
    }
  }
  attr {
    key: "_output_shapes"
    value {
      list {
        shape {
          dim {
            size: 3
          }
        }
      }
    }
  }
}
node {
  name: "dnn/input_from_feature_columns/input_layer/Embarked_indicator_1/Embarked_lookup/Cast"
  op: "Cast"
  input: "dnn/input_from_feature_columns/input_layer/Embarked_indicator_1/Embarked_lookup/range"
  attr {
    key: "DstT"
    value {
      type: DT_INT64
    }
  }
  attr {
    key: "SrcT"
    value {
      type: DT_INT32
    }
  }
  attr {
    key: "Truncate"
    value {
      b: false
    }
  }
  attr {
    key: "_output_shapes"
    value {
      list {
        shape {
          dim {
            size: 3
          }
        }
      }
    }
  }
}
node {
  name: "dnn/input_from_feature_columns/input_layer/Embarked_indicator_1/Embarked_lookup/hash_table/Const"
  op: "Const"
  attr {
    key: "_output_shapes"
    value {
      list {
        shape {
        }
      }
    }
  }
  attr {
    key: "dtype"
    value {
      type: DT_INT64
    }
  }
  attr {
    key: "value"
    value {
      tensor {
        dtype: DT_INT64
        tensor_shape {
        }
        int64_val: -1
      }
    }
  }
}
node {
  name: "dnn/input_from_feature_columns/input_layer/Embarked_indicator_1/Embarked_lookup/hash_table/hash_table"
  op: "HashTableV2"
  attr {
    key: "_output_shapes"
    value {
      list {
        shape {
        }
      }
    }
  }
  attr {
    key: "container"
    value {
      s: ""
    }
  }
  attr {
    key: "key_dtype"
    value {
      type: DT_STRING
    }
  }
  attr {
    key: "shared_name"
    value {
      s: "hash_table_0b8dd6db-1a7e-496d-8ce3-28a1c145c847"
    }
  }
  attr {
    key: "use_node_name_sharing"
    value {
      b: false
    }
  }
  attr {
    key: "value_dtype"
    value {
      type: DT_INT64
    }
  }
}
node {
  name: "dnn/input_from_feature_columns/input_layer/Embarked_indicator_1/Embarked_lookup/hash_table/table_init/LookupTableImportV2"
  op: "LookupTableImportV2"
  input: "dnn/input_from_feature_columns/input_layer/Embarked_indicator_1/Embarked_lookup/hash_table/hash_table"
  input: "dnn/input_from_feature_columns/input_layer/Embarked_indicator_1/Embarked_lookup/Const"
  input: "dnn/input_from_feature_columns/input_layer/Embarked_indicator_1/Embarked_lookup/Cast"
  attr {
    key: "Tin"
    value {
      type: DT_STRING
    }
  }
  attr {
    key: "Tout"
    value {
      type: DT_INT64
    }
  }
}
node {
  name: "dnn/input_from_feature_columns/input_layer/Embarked_indicator_1/hash_table_Lookup/LookupTableFindV2"
  op: "LookupTableFindV2"
  input: "dnn/input_from_feature_columns/input_layer/Embarked_indicator_1/Embarked_lookup/hash_table/hash_table"
  input: "dnn/input_from_feature_columns/input_layer/Embarked_indicator_1/to_sparse_input/values"
  input: "dnn/input_from_feature_columns/input_layer/Embarked_indicator_1/Embarked_lookup/hash_table/Const"
  attr {
    key: "Tin"
    value {
      type: DT_STRING
    }
  }
  attr {
    key: "Tout"
    value {
      type: DT_INT64
    }
  }
  attr {
    key: "_output_shapes"
    value {
      list {
        shape {
          dim {
            size: -1
          }
        }
      }
    }
  }
}
node {
  name: "dnn/input_from_feature_columns/input_layer/Embarked_indicator_1/SparseToDense/default_value"
  op: "Const"
  attr {
    key: "_output_shapes"
    value {
      list {
        shape {
        }
      }
    }
  }
  attr {
    key: "dtype"
    value {
      type: DT_INT64
    }
  }
  attr {
    key: "value"
    value {
      tensor {
        dtype: DT_INT64
        tensor_shape {
        }
        int64_val: -1
      }
    }
  }
}
node {
  name: "dnn/input_from_feature_columns/input_layer/Embarked_indicator_1/SparseToDense"
  op: "SparseToDense"
  input: "dnn/input_from_feature_columns/input_layer/Embarked_indicator_1/to_sparse_input/indices"
  input: "dnn/input_from_feature_columns/input_layer/Embarked_indicator_1/to_sparse_input/dense_shape"
  input: "dnn/input_from_feature_columns/input_layer/Embarked_indicator_1/hash_table_Lookup/LookupTableFindV2"
  input: "dnn/input_from_feature_columns/input_layer/Embarked_indicator_1/SparseToDense/default_value"
  attr {
    key: "T"
    value {
      type: DT_INT64
    }
  }
  attr {
    key: "Tindices"
    value {
      type: DT_INT64
    }
  }
  attr {
    key: "_output_shapes"
    value {
      list {
        shape {
          dim {
            size: -1
          }
          dim {
            size: 1
          }
        }
      }
    }
  }
  attr {
    key: "validate_indices"
    value {
      b: true
    }
  }
}
node {
  name: "dnn/input_from_feature_columns/input_layer/Embarked_indicator_1/one_hot/Const"
  op: "Const"
  attr {
    key: "_output_shapes"
    value {
      list {
        shape {
        }
      }
    }
  }
  attr {
    key: "dtype"
    value {
      type: DT_FLOAT
    }
  }
  attr {
    key: "value"
    value {
      tensor {
        dtype: DT_FLOAT
        tensor_shape {
        }
        float_val: 1.0
      }
    }
  }
}
node {
  name: "dnn/input_from_feature_columns/input_layer/Embarked_indicator_1/one_hot/Const_1"
  op: "Const"
  attr {
    key: "_output_shapes"
    value {
      list {
        shape {
        }
      }
    }
  }
  attr {
    key: "dtype"
    value {
      type: DT_FLOAT
    }
  }
  attr {
    key: "value"
    value {
      tensor {
        dtype: DT_FLOAT
        tensor_shape {
        }
        float_val: 0.0
      }
    }
  }
}
node {
  name: "dnn/input_from_feature_columns/input_layer/Embarked_indicator_1/one_hot/depth"
  op: "Const"
  attr {
    key: "_output_shapes"
    value {
      list {
        shape {
        }
      }
    }
  }
  attr {
    key: "dtype"
    value {
      type: DT_INT32
    }
  }
  attr {
    key: "value"
    value {
      tensor {
        dtype: DT_INT32
        tensor_shape {
        }
        int_val: 3
      }
    }
  }
}
node {
  name: "dnn/input_from_feature_columns/input_layer/Embarked_indicator_1/one_hot/on_value"
  op: "Const"
  attr {
    key: "_output_shapes"
    value {
      list {
        shape {
        }
      }
    }
  }
  attr {
    key: "dtype"
    value {
      type: DT_FLOAT
    }
  }
  attr {
    key: "value"
    value {
      tensor {
        dtype: DT_FLOAT
        tensor_shape {
        }
        float_val: 1.0
      }
    }
  }
}
node {
  name: "dnn/input_from_feature_columns/input_layer/Embarked_indicator_1/one_hot/off_value"
  op: "Const"
  attr {
    key: "_output_shapes"
    value {
      list {
        shape {
        }
      }
    }
  }
  attr {
    key: "dtype"
    value {
      type: DT_FLOAT
    }
  }
  attr {
    key: "value"
    value {
      tensor {
        dtype: DT_FLOAT
        tensor_shape {
        }
        float_val: 0.0
      }
    }
  }
}
node {
  name: "dnn/input_from_feature_columns/input_layer/Embarked_indicator_1/one_hot"
  op: "OneHot"
  input: "dnn/input_from_feature_columns/input_layer/Embarked_indicator_1/SparseToDense"
  input: "dnn/input_from_feature_columns/input_layer/Embarked_indicator_1/one_hot/depth"
  input: "dnn/input_from_feature_columns/input_layer/Embarked_indicator_1/one_hot/on_value"
  input: "dnn/input_from_feature_columns/input_layer/Embarked_indicator_1/one_hot/off_value"
  attr {
    key: "T"
    value {
      type: DT_FLOAT
    }
  }
  attr {
    key: "TI"
    value {
      type: DT_INT64
    }
  }
  attr {
    key: "_output_shapes"
    value {
      list {
        shape {
          dim {
            size: -1
          }
          dim {
            size: 1
          }
          dim {
            size: 3
          }
        }
      }
    }
  }
  attr {
    key: "axis"
    value {
      i: -1
    }
  }
}
node {
  name: "dnn/input_from_feature_columns/input_layer/Embarked_indicator_1/Sum/reduction_indices"
  op: "Const"
  attr {
    key: "_output_shapes"
    value {
      list {
        shape {
          dim {
            size: 1
          }
        }
      }
    }
  }
  attr {
    key: "dtype"
    value {
      type: DT_INT32
    }
  }
  attr {
    key: "value"
    value {
      tensor {
        dtype: DT_INT32
        tensor_shape {
          dim {
            size: 1
          }
        }
…
              dim {
                size: -1
              }
              dim {
                size: 128
              }
            }
          }
        }
      }
      attr {
        key: "incompatible_shape_error"
        value {
          b: true
        }
      }
      experimental_debug_info {
        original_node_names: "count_nonzero/NotEqual"
      }
    }
    node_def {
      name: "count_nonzero/Cast"
      op: "Cast"
      input: "count_nonzero/NotEqual:z:0"
      attr {
        key: "DstT"
        value {
          type: DT_INT64
        }
      }
      attr {
        key: "SrcT"
        value {
          type: DT_BOOL
        }
      }
      attr {
        key: "Truncate"
        value {
          b: false
        }
      }
      attr {
        key: "_output_shapes"
        value {
          list {
            shape {
              dim {
                size: -1
              }
              dim {
                size: 128
              }
            }
          }
        }
      }
      experimental_debug_info {
        original_node_names: "count_nonzero/Cast"
      }
    }
    node_def {
      name: "count_nonzero/Const"
      op: "Const"
      attr {
        key: "_output_shapes"
        value {
          list {
            shape {
              dim {
                size: 2
              }
            }
          }
        }
      }
      attr {
        key: "dtype"
        value {
          type: DT_INT32
        }
      }
      attr {
        key: "value"
        value {
          tensor {
            dtype: DT_INT32
            tensor_shape {
              dim {
                size: 2
              }
            }
            tensor_content: "\000\000\000\000\001\000\000\000"
          }
        }
      }
      experimental_debug_info {
        original_node_names: "count_nonzero/Const"
      }
    }
    node_def {
      name: "count_nonzero/nonzero_count"
      op: "Sum"
      input: "count_nonzero/Cast:y:0"
      input: "count_nonzero/Const:output:0"
      attr {
        key: "T"
        value {
          type: DT_INT64
        }
      }
      attr {
        key: "Tidx"
        value {
          type: DT_INT32
        }
      }
      attr {
        key: "_output_shapes"
        value {
          list {
            shape {
            }
          }
        }
      }
      attr {
        key: "keep_dims"
        value {
          b: false
        }
      }
      experimental_debug_info {
        original_node_names: "count_nonzero/nonzero_count"
      }
    }
    node_def {
      name: "OptionalFromValue"
      op: "OptionalFromValue"
      input: "count_nonzero/zeros:output:0"
      attr {
        key: "Toutput_types"
        value {
          list {
            type: DT_FLOAT
          }
        }
      }
      attr {
        key: "_output_shapes"
        value {
          list {
            shape {
            }
          }
        }
      }
      experimental_debug_info {
        original_node_names: "OptionalFromValue"
      }
    }
    node_def {
      name: "OptionalFromValue_1"
      op: "OptionalFromValue"
      input: "count_nonzero/NotEqual:z:0"
      attr {
        key: "Toutput_types"
        value {
          list {
            type: DT_BOOL
          }
        }
      }
      attr {
        key: "_output_shapes"
        value {
          list {
            shape {
            }
          }
        }
      }
      experimental_debug_info {
        original_node_names: "OptionalFromValue_1"
      }
    }
    node_def {
      name: "OptionalFromValue_2"
      op: "OptionalFromValue"
      input: "count_nonzero/Cast:y:0"
      attr {
        key: "Toutput_types"
        value {
          list {
            type: DT_INT64
          }
        }
      }
      attr {
        key: "_output_shapes"
        value {
          list {
            shape {
            }
          }
        }
      }
      experimental_debug_info {
        original_node_names: "OptionalFromValue_2"
      }
    }
    node_def {
      name: "OptionalFromValue_3"
      op: "OptionalFromValue"
      input: "count_nonzero/Const:output:0"
      attr {
        key: "Toutput_types"
        value {
          list {
            type: DT_INT32
          }
        }
      }
      attr {
        key: "_output_shapes"
        value {
          list {
            shape {
            }
          }
        }
      }
      experimental_debug_info {
        original_node_names: "OptionalFromValue_3"
      }
    }
    node_def {
      name: "OptionalNone"
      op: "OptionalNone"
      attr {
        key: "_output_shapes"
        value {
          list {
            shape {
            }
          }
        }
      }
      experimental_debug_info {
        original_node_names: "OptionalNone"
      }
    }
    ret {
      key: "count_nonzero_nonzero_count"
      value: "count_nonzero/nonzero_count:output:0"
    }
    ret {
      key: "optionalfromvalue"
      value: "OptionalFromValue:optional:0"
    }
    ret {
      key: "optionalfromvalue_1"
      value: "OptionalFromValue_1:optional:0"
    }
    ret {
      key: "optionalfromvalue_2"
      value: "OptionalFromValue_2:optional:0"
    }
    ret {
      key: "optionalfromvalue_3"
      value: "OptionalFromValue_3:optional:0"
    }
    ret {
      key: "optionalnone"
      value: "OptionalNone:optional:0"
    }
    attr {
      key: "_input_shapes"
      value {
        list {
          shape {
            dim {
              size: -1
            }
            dim {
              size: 128
            }
          }
        }
      }
    }
  }
  function {
    signature {
      name: "head_losses_check_label_range_assert_less_equal_Assert_AssertGuard_false_10317"
      input_arg {
        name: "assert_head_losses_check_label_range_assert_less_equal_all"
        type: DT_BOOL
      }
      input_arg {
        name: "assert_head_losses_cast"
        type: DT_FLOAT
      }
      input_arg {
        name: "assert_head_losses_check_label_range_const"
        type: DT_FLOAT
      }
      output_arg {
        name: "identity"
        type: DT_BOOL
      }
      is_stateful: true
    }
    node_def {
      name: "Assert/data_0"
      op: "Const"
      attr {
        key: "_output_shapes"
        value {
          list {
            shape {
            }
          }
        }
      }
      attr {
        key: "dtype"
        value {
          type: DT_STRING
        }
      }
      attr {
        key: "value"
        value {
          tensor {
            dtype: DT_STRING
            tensor_shape {
            }
            string_val: "Labels must be <= n_classes - 1"
          }
        }
      }
      experimental_debug_info {
        original_node_names: "Assert/data_0"
      }
    }
    node_def {
      name: "Assert/data_1"
      op: "Const"
      attr {
        key: "_output_shapes"
        value {
          list {
            shape {
            }
          }
        }
      }
      attr {
        key: "dtype"
        value {
          type: DT_STRING
        }
      }
      attr {
        key: "value"
        value {
          tensor {
            dtype: DT_STRING
            tensor_shape {
            }
            string_val: "Condition x <= y did not hold element-wise:"
          }
        }
      }
      experimental_debug_info {
        original_node_names: "Assert/data_1"
      }
    }
    node_def {
      name: "Assert/data_2"
      op: "Const"
      attr {
        key: "_output_shapes"
        value {
          list {
            shape {
            }
          }
        }
      }
      attr {
        key: "dtype"
        value {
          type: DT_STRING
        }
      }
      attr {
        key: "value"
        value {
          tensor {
            dtype: DT_STRING
            tensor_shape {
            }
            string_val: "x (head/losses/Cast:0) = "
          }
        }
      }
      experimental_debug_info {
        original_node_names: "Assert/data_2"
      }
    }
    node_def {
      name: "Assert/data_4"
      op: "Const"
      attr {
        key: "_output_shapes"
        value {
          list {
            shape {
            }
          }
        }
      }
      attr {
        key: "dtype"
        value {
          type: DT_STRING
        }
      }
      attr {
        key: "value"
        value {
          tensor {
            dtype: DT_STRING
            tensor_shape {
            }
            string_val: "y (head/losses/check_label_range/Const:0) = "
          }
        }
      }
      experimental_debug_info {
        original_node_names: "Assert/data_4"
      }
    }
    node_def {
      name: "Assert"
      op: "Assert"
      input: "assert_head_losses_check_label_range_assert_less_equal_all"
      input: "Assert/data_0:output:0"
      input: "Assert/data_1:output:0"
      input: "Assert/data_2:output:0"
      input: "assert_head_losses_cast"
      input: "Assert/data_4:output:0"
      input: "assert_head_losses_check_label_range_const"
      attr {
        key: "T"
        value {
          list {
            type: DT_STRING
            type: DT_STRING
            type: DT_STRING
            type: DT_FLOAT
            type: DT_STRING
            type: DT_FLOAT
          }
        }
      }
      attr {
        key: "_output_shapes"
        value {
          list {
          }
        }
      }
      attr {
        key: "summarize"
        value {
          i: 3
        }
      }
      experimental_debug_info {
        original_node_names: "Assert"
      }
    }
    node_def {
      name: "Identity"
      op: "Identity"
      input: "assert_head_losses_check_label_range_assert_less_equal_all"
      input: "^Assert"
      attr {
        key: "T"
        value {
          type: DT_BOOL
        }
      }
      attr {
        key: "_output_shapes"
        value {
          list {
            shape {
            }
          }
        }
      }
      experimental_debug_info {
        original_node_names: "Identity"
      }
    }
    ret {
      key: "identity"
      value: "Identity:output:0"
    }
    attr {
      key: "_input_shapes"
      value {
        list {
          shape {
          }
          shape {
            dim {
              size: -1
            }
            dim {
              size: 1
            }
          }
          shape {
          }
        }
      }
    }
  }
  function {
    signature {
      name: "dnn_zero_fraction_2_cond_false_10192"
      input_arg {
        name: "count_nonzero_notequal_dnn_logits_biasadd"
        type: DT_FLOAT
      }
      output_arg {
        name: "count_nonzero_nonzero_count"
        type: DT_INT64
      }
      output_arg {
        name: "optionalfromvalue"
        type: DT_VARIANT
      }
      output_arg {
        name: "optionalfromvalue_1"
        type: DT_VARIANT
      }
      output_arg {
        name: "optionalfromvalue_2"
        type: DT_VARIANT
      }
      output_arg {
        name: "optionalfromvalue_3"
        type: DT_VARIANT
      }
      output_arg {
        name: "optionalnone"
        type: DT_VARIANT
      }
    }
    node_def {
      name: "count_nonzero/zeros"
      op: "Const"
      attr {
        key: "_output_shapes"
        value {
          list {
            shape {
            }
          }
        }
      }
      attr {
        key: "dtype"
        value {
          type: DT_FLOAT
        }
      }
      attr {
        key: "value"
        value {
          tensor {
            dtype: DT_FLOAT
            tensor_shape {
            }
            float_val: 0.0
          }
        }
      }
      experimental_debug_info {
        original_node_names: "count_nonzero/zeros"
      }
    }
    node_def {
      name: "count_nonzero/NotEqual"
      op: "NotEqual"
      input: "count_nonzero_notequal_dnn_logits_biasadd"
      input: "count_nonzero/zeros:output:0"
      attr {
        key: "T"
        value {
          type: DT_FLOAT
        }
      }
      attr {
        key: "_output_shapes"
        value {
          list {
            shape {
              dim {
                size: -1
              }
              dim {
                size: 1
              }
            }
          }
        }
      }
      attr {
        key: "incompatible_shape_error"
        value {
          b: true
        }
      }
      experimental_debug_info {
        original_node_names: "count_nonzero/NotEqual"
      }
    }
    node_def {
      name: "count_nonzero/Cast"
      op: "Cast"
      input: "count_nonzero/NotEqual:z:0"
      attr {
        key: "DstT"
        value {
          type: DT_INT64
        }
      }
      attr {
        key: "SrcT"
        value {
          type: DT_BOOL
        }
      }
      attr {
        key: "Truncate"
        value {
          b: false
        }
      }
      attr {
        key: "_output_shapes"
        value {
          list {
            shape {
              dim {
                size: -1
              }
              dim {
                size: 1
              }
            }
          }
        }
      }
      experimental_debug_info {
        original_node_names: "count_nonzero/Cast"
      }
    }
    node_def {
      name: "count_nonzero/Const"
      op: "Const"
      attr {
        key: "_output_shapes"
        value {
          list {
            shape {
              dim {
                size: 2
              }
            }
          }
        }
      }
      attr {
        key: "dtype"
        value {
          type: DT_INT32
        }
      }
      attr {
        key: "value"
        value {
          tensor {
            dtype: DT_INT32
            tensor_shape {
              dim {
                size: 2
              }
            }
            tensor_content: "\000\000\000\000\001\000\000\000"
          }
        }
      }
      experimental_debug_info {
        original_node_names: "count_nonzero/Const"
      }
    }
    node_def {
      name: "count_nonzero/nonzero_count"
      op: "Sum"
      input: "count_nonzero/Cast:y:0"
      input: "count_nonzero/Const:output:0"
      attr {
        key: "T"
        value {
          type: DT_INT64
        }
      }
      attr {
        key: "Tidx"
        value {
          type: DT_INT32
        }
      }
      attr {
        key: "_output_shapes"
        value {
          list {
            shape {
            }
          }
        }
      }
      attr {
        key: "keep_dims"
        value {
          b: false
        }
      }
      experimental_debug_info {
        original_node_names: "count_nonzero/nonzero_count"
      }
    }
    node_def {
      name: "OptionalFromValue"
      op: "OptionalFromValue"
      input: "count_nonzero/zeros:output:0"
      attr {
        key: "Toutput_types"
        value {
          list {
            type: DT_FLOAT
          }
        }
      }
      attr {
        key: "_output_shapes"
        value {
          list {
            shape {
            }
          }
        }
      }
      experimental_debug_info {
        original_node_names: "OptionalFromValue"
      }
    }
    node_def {
      name: "OptionalFromValue_1"
      op: "OptionalFromValue"
      input: "count_nonzero/NotEqual:z:0"
      attr {
        key: "Toutput_types"
        value {
          list {
            type: DT_BOOL
          }
        }
      }
      attr {
        key: "_output_shapes"
        value {
          list {
            shape {
            }
          }
        }
      }
      experimental_debug_info {
        original_node_names: "OptionalFromValue_1"
      }
    }
    node_def {
      name: "OptionalFromValue_2"
      op: "OptionalFromValue"
      input: "count_nonzero/Cast:y:0"
      attr {
        key: "Toutput_types"
        value {
          list {
            type: DT_INT64
          }
        }
      }
      attr {
        key: "_output_shapes"
        value {
          list {
            shape {
            }
          }
        }
      }
      experimental_debug_info {
        original_node_names: "OptionalFromValue_2"
      }
    }
    node_def {
      name: "OptionalFromValue_3"
      op: "OptionalFromValue"
      input: "count_nonzero/Const:output:0"
      attr {
        key: "Toutput_types"
        value {
          list {
            type: DT_INT32
          }
        }
      }
      attr {
        key: "_output_shapes"
        value {
          list {
            shape {
            }
          }
        }
      }
      experimental_debug_info {
        original_node_names: "OptionalFromValue_3"
      }
    }
    node_def {
      name: "OptionalNone"
      op: "OptionalNone"
      attr {
        key: "_output_shapes"
        value {
          list {
            shape {
            }
          }
        }
      }
      experimental_debug_info {
        original_node_names: "OptionalNone"
      }
    }
    ret {
      key: "count_nonzero_nonzero_count"
      value: "count_nonzero/nonzero_count:output:0"
    }
    ret {
      key: "optionalfromvalue"
      value: "OptionalFromValue:optional:0"
    }
    ret {
      key: "optionalfromvalue_1"
      value: "OptionalFromValue_1:optional:0"
    }
    ret {
      key: "optionalfromvalue_2"
      value: "OptionalFromValue_2:optional:0"
    }
    ret {
      key: "optionalfromvalue_3"
      value: "OptionalFromValue_3:optional:0"
    }
    ret {
      key: "optionalnone"
      value: "OptionalNone:optional:0"
    }
    attr {
      key: "_input_shapes"
      value {
        list {
          shape {
            dim {
              size: -1
            }
            dim {
              size: 1
            }
          }
        }
      }
    }
  }
  function {
    signature {
      name: "global_step_cond_true_9777"
      input_arg {
        name: "read_readvariableop_global_step"
        type: DT_RESOURCE
      }
      input_arg {
        name: "placeholder"
        type: DT_INT64
      }
      output_arg {
        name: "identity"
        type: DT_INT64
      }
      is_stateful: true
    }
    node_def {
      name: "Read/ReadVariableOp"
      op: "ReadVariableOp"
      input: "read_readvariableop_global_step"
      attr {
        key: "_output_shapes"
        value {
          list {
            shape {
            }
          }
        }
      }
      attr {
        key: "dtype"
        value {
          type: DT_INT64
        }
      }
      experimental_debug_info {
        original_node_names: "Read/ReadVariableOp"
      }
    }
    node_def {
      name: "Identity"
      op: "Identity"
      input: "Read/ReadVariableOp:value:0"
      attr {
        key: "T"
        value {
          type: DT_INT64
        }
      }
      attr {
        key: "_output_shapes"
        value {
          list {
            shape {
            }
          }
        }
      }
      experimental_debug_info {
        original_node_names: "Identity"
      }
    }
    ret {
      key: "identity"
      value: "Identity:output:0"
    }
    attr {
      key: "_input_shapes"
      value {
        list {
          shape {
            unknown_rank: true
          }
          shape {
          }
        }
      }
    }
  }
  function {
    signature {
      name: "global_step_cond_false_9778"
      input_arg {
        name: "placeholder"
        type: DT_RESOURCE
      }
      input_arg {
        name: "global_step_initializer_zeros_0"
        type: DT_INT64
      }
      output_arg {
        name: "global_step_initializer_zeros"
        type: DT_INT64
      }
    }
    ret {
      key: "global_step_initializer_zeros"
      value: "global_step_initializer_zeros_0"
    }
    attr {
      key: "_input_shapes"
      value {
        list {
          shape {
            unknown_rank: true
          }
          shape {
          }
        }
      }
    }
  }
  function {
    signature {
      name: "dnn_zero_fraction_2_cond_true_10191"
      input_arg {
        name: "count_nonzero_notequal_dnn_logits_biasadd"
        type: DT_FLOAT
      }
      output_arg {
        name: "cast"
        type: DT_INT64
      }
      output_arg {
        name: "optionalfromvalue"
        type: DT_VARIANT
      }
      output_arg {
        name: "optionalfromvalue_1"
        type: DT_VARIANT
      }
      output_arg {
        name: "optionalfromvalue_2"
        type: DT_VARIANT
      }
      output_arg {
        name: "optionalfromvalue_3"
        type: DT_VARIANT
      }
      output_arg {
        name: "optionalfromvalue_4"
        type: DT_VARIANT
      }
    }
    node_def {
      name: "count_nonzero/zeros"
      op: "Const"
      attr {
        key: "_output_shapes"
        value {
          list {
            shape {
            }
          }
        }
      }
      attr {
        key: "dtype"
        value {
          type: DT_FLOAT
        }
      }
      attr {
        key: "value"
        value {
          tensor {
            dtype: DT_FLOAT
            tensor_shape {
            }
            float_val: 0.0
          }
        }
      }
      experimental_debug_info {
        original_node_names: "count_nonzero/zeros"
      }
    }
    node_def {
      name: "count_nonzero/NotEqual"
      op: "NotEqual"
      input: "count_nonzero_notequal_dnn_logits_biasadd"
      input: "count_nonzero/zeros:output:0"
      attr {
        key: "T"
        value {
          type: DT_FLOAT
        }
      }
      attr {
        key: "_output_shapes"
        value {
          list {
            shape {
              dim {
                size: -1
              }
              dim {
                size: 1
              }
            }
          }
        }
      }
      attr {
        key: "incompatible_shape_error"
        value {
          b: true
        }
      }
      experimental_debug_info {
        original_node_names: "count_nonzero/NotEqual"
      }
    }
    node_def {
      name: "count_nonzero/Cast"
      op: "Cast"
      input: "count_nonzero/NotEqual:z:0"
      attr {
        key: "DstT"
        value {
          type: DT_INT32
        }
      }
      attr {
        key: "SrcT"
        value {
          type: DT_BOOL
        }
      }
      attr {
        key: "Truncate"
        value {
          b: false
        }
      }
      attr {
        key: "_output_shapes"
        value {
          list {
            shape {
              dim {
                size: -1
              }
              dim {
                size: 1
              }
            }
          }
        }
      }
      experimental_debug_info {
        original_node_names: "count_nonzero/Cast"
      }
    }
    node_def {
      name: "count_nonzero/Const"
      op: "Const"
      attr {
        key: "_output_shapes"
        value {
          list {
            shape {
              dim {
                size: 2
              }
            }
          }
        }
      }
      attr {
        key: "dtype"
        value {
          type: DT_INT32
        }
      }
      attr {
        key: "value"
        value {
          tensor {
            dtype: DT_INT32
            tensor_shape {
              dim {
                size: 2
              }
            }
            tensor_content: "\000\000\000\000\001\000\000\000"
          }
        }
      }
      experimental_debug_info {
        original_node_names: "count_nonzero/Const"
      }
    }
    node_def {
      name: "count_nonzero/nonzero_count"
      op: "Sum"
      input: "count_nonzero/Cast:y:0"
      input: "count_nonzero/Const:output:0"
      attr {
        key: "T"
        value {
          type: DT_INT32
        }
      }
      attr {
        key: "Tidx"
        value {
          type: DT_INT32
        }
      }
      attr {
        key: "_output_shapes"
        value {
          list {
            shape {
            }
          }
        }
      }
      attr {
        key: "keep_dims"
        value {
          b: false
        }
      }
      experimental_debug_info {
        original_node_names: "count_nonzero/nonzero_count"
      }
    }
    node_def {
      name: "Cast"
      op: "Cast"
      input: "count_nonzero/nonzero_count:output:0"
      attr {
        key: "DstT"
        value {
          type: DT_INT64
        }
      }
      attr {
        key: "SrcT"
        value {
          type: DT_INT32
        }
      }
      attr {
        key: "Truncate"
        value {
          b: false
        }
      }
      attr {
        key: "_output_shapes"
        value {
          list {
            shape {
            }
          }
        }
      }
      experimental_debug_info {
        original_node_names: "Cast"
      }
    }
    node_def {
      name: "OptionalFromValue"
      op: "OptionalFromValue"
      input: "count_nonzero/zeros:output:0"
      attr {
        key: "Toutput_types"
        value {
          list {
            type: DT_FLOAT
          }
        }
      }
      attr {
        key: "_output_shapes"
        value {
          list {
            shape {
            }
          }
        }
      }
      experimental_debug_info {
        original_node_names: "OptionalFromValue"
      }
    }
    node_def {
      name: "OptionalFromValue_1"
      op: "OptionalFromValue"
      input: "count_nonzero/NotEqual:z:0"
      attr {
        key: "Toutput_types"
        value {
          list {
            type: DT_BOOL
          }
        }
      }
      attr {
        key: "_output_shapes"
        value {
          list {
            shape {
            }
          }
        }
      }
      experimental_debug_info {
        original_node_names: "OptionalFromValue_1"
      }
    }
    node_def {
      name: "OptionalFromValue_2"
      op: "OptionalFromValue"
      input: "count_nonzero/Cast:y:0"
      attr {
        key: "Toutput_types"
        value {
          list {
            type: DT_INT32
          }
        }
      }
      attr {
        key: "_output_shapes"
        value {
          list {
            shape {
            }
          }
        }
      }
      experimental_debug_info {
        original_node_names: "OptionalFromValue_2"
      }
    }
    node_def {
      name: "OptionalFromValue_3"
      op: "OptionalFromValue"
      input: "count_nonzero/Const:output:0"
      attr {
        key: "Toutput_types"
        value {
          list {
            type: DT_INT32
          }
        }
      }
      attr {
        key: "_output_shapes"
        value {
          list {
            shape {
            }
          }
        }
      }
      experimental_debug_info {
        original_node_names: "OptionalFromValue_3"
      }
    }
    node_def {
      name: "OptionalFromValue_4"
      op: "OptionalFromValue"
      input: "count_nonzero/nonzero_count:output:0"
      attr {
        key: "Toutput_types"
        value {
          list {
            type: DT_INT32
          }
        }
      }
      attr {
        key: "_output_shapes"
        value {
          list {
            shape {
            }
          }
        }
      }
      experimental_debug_info {
        original_node_names: "OptionalFromValue_4"
      }
    }
    ret {
      key: "cast"
      value: "Cast:y:0"
    }
    ret {
      key: "optionalfromvalue"
      value: "OptionalFromValue:optional:0"
    }
    ret {
      key: "optionalfromvalue_1"
      value: "OptionalFromValue_1:optional:0"
    }
    ret {
      key: "optionalfromvalue_2"
      value: "OptionalFromValue_2:optional:0"
    }
    ret {
      key: "optionalfromvalue_3"
      value: "OptionalFromValue_3:optional:0"
    }
    ret {
      key: "optionalfromvalue_4"
      value: "OptionalFromValue_4:optional:0"
    }
    attr {
      key: "_input_shapes"
      value {
        list {
          shape {
            dim {
              size: -1
            }
            dim {
              size: 1
            }
          }
        }
      }
    }
  }
  function {
    signature {
      name: "head_losses_check_label_range_assert_less_equal_Assert_AssertGuard_true_10316"
      input_arg {
        name: "identity_head_losses_check_label_range_assert_less_equal_all"
        type: DT_BOOL
      }
      input_arg {
        name: "placeholder"
        type: DT_FLOAT
      }
      input_arg {
        name: "placeholder_1"
        type: DT_FLOAT
      }
      output_arg {
        name: "identity"
        type: DT_BOOL
      }
    }
    node_def {
      name: "NoOp"
      op: "NoOp"
      attr {
        key: "_output_shapes"
        value {
          list {
          }
        }
      }
      experimental_debug_info {
        original_node_names: "NoOp"
      }
    }
    node_def {
      name: "Identity"
      op: "Identity"
      input: "identity_head_losses_check_label_range_assert_less_equal_all"
      input: "^NoOp"
      attr {
        key: "T"
        value {
          type: DT_BOOL
        }
      }
      attr {
        key: "_output_shapes"
        value {
          list {
            shape {
            }
          }
        }
      }
      experimental_debug_info {
        original_node_names: "Identity"
      }
    }
    ret {
      key: "identity"
      value: "Identity:output:0"
    }
    attr {
      key: "_input_shapes"
      value {
        list {
          shape {
          }
          shape {
            dim {
              size: -1
            }
            dim {
              size: 1
            }
          }
          shape {
          }
        }
      }
    }
  }
  function {
    signature {
      name: "head_losses_check_label_range_assert_non_negative_assert_less_equal_Assert_AssertGuard_true_10341"
      input_arg {
        name: "identity_head_losses_check_label_range_assert_non_negative_assert_less_equal_all"
        type: DT_BOOL
      }
      input_arg {
        name: "placeholder"
        type: DT_FLOAT
      }
      output_arg {
        name: "identity"
        type: DT_BOOL
      }
    }
    node_def {
      name: "NoOp"
      op: "NoOp"
      attr {
        key: "_output_shapes"
        value {
          list {
          }
        }
      }
      experimental_debug_info {
        original_node_names: "NoOp"
      }
    }
    node_def {
      name: "Identity"
      op: "Identity"
      input: "identity_head_losses_check_label_range_assert_non_negative_assert_less_equal_all"
      input: "^NoOp"
      attr {
        key: "T"
        value {
          type: DT_BOOL
        }
      }
      attr {
        key: "_output_shapes"
        value {
          list {
            shape {
            }
          }
        }
      }
      experimental_debug_info {
        original_node_names: "Identity"
      }
    }
    ret {
      key: "identity"
      value: "Identity:output:0"
    }
    attr {
      key: "_input_shapes"
      value {
        list {
          shape {
          }
          shape {
            dim {
              size: -1
            }
            dim {
              size: 1
            }
          }
        }
      }
    }
  }
  function {
    signature {
      name: "head_losses_check_label_range_assert_non_negative_assert_less_equal_Assert_AssertGuard_false_10342"
      input_arg {
        name: "assert_head_losses_check_label_range_assert_non_negative_assert_less_equal_all"
        type: DT_BOOL
      }
      input_arg {
        name: "assert_head_losses_cast"
        type: DT_FLOAT
      }
      output_arg {
        name: "identity"
        type: DT_BOOL
      }
      is_stateful: true
    }
    node_def {
      name: "Assert/data_0"
      op: "Const"
      attr {
        key: "_output_shapes"
        value {
          list {
            shape {
            }
          }
        }
      }
      attr {
        key: "dtype"
        value {
          type: DT_STRING
        }
      }
      attr {
        key: "value"
        value {
          tensor {
            dtype: DT_STRING
            tensor_shape {
            }
            string_val: "Labels must be >= 0"
          }
        }
      }
      experimental_debug_info {
        original_node_names: "Assert/data_0"
      }
    }
    node_def {
      name: "Assert/data_1"
      op: "Const"
      attr {
        key: "_output_shapes"
        value {
          list {
            shape {
            }
          }
        }
      }
      attr {
        key: "dtype"
        value {
          type: DT_STRING
        }
      }
      attr {
        key: "value"
        value {
          tensor {
            dtype: DT_STRING
            tensor_shape {
            }
            string_val: "Condition x >= 0 did not hold element-wise:"
          }
        }
      }
      experimental_debug_info {
        original_node_names: "Assert/data_1"
      }
    }
    node_def {
      name: "Assert/data_2"
      op: "Const"
      attr {
        key: "_output_shapes"
        value {
          list {
            shape {
            }
          }
        }
      }
      attr {
        key: "dtype"
        value {
          type: DT_STRING
        }
      }
      attr {
        key: "value"
        value {
          tensor {
            dtype: DT_STRING
            tensor_shape {
            }
            string_val: "x (head/losses/Cast:0) = "
          }
        }
      }
      experimental_debug_info {
        original_node_names: "Assert/data_2"
      }
    }
    node_def {
      name: "Assert"
      op: "Assert"
      input: "assert_head_losses_check_label_range_assert_non_negative_assert_less_equal_all"
      input: "Assert/data_0:output:0"
      input: "Assert/data_1:output:0"
      input: "Assert/data_2:output:0"
      input: "assert_head_losses_cast"
      attr {
        key: "T"
        value {
          list {
            type: DT_STRING
            type: DT_STRING
            type: DT_STRING
            type: DT_FLOAT
          }
        }
      }
      attr {
        key: "_output_shapes"
        value {
          list {
          }
        }
      }
      attr {
        key: "summarize"
        value {
          i: 3
        }
      }
      experimental_debug_info {
        original_node_names: "Assert"
      }
    }
    node_def {
      name: "Identity"
      op: "Identity"
      input: "assert_head_losses_check_label_range_assert_non_negative_assert_less_equal_all"
      input: "^Assert"
      attr {
        key: "T"
        value {
          type: DT_BOOL
        }
      }
      attr {
        key: "_output_shapes"
        value {
          list {
            shape {
            }
          }
        }
      }
      experimental_debug_info {
        original_node_names: "Identity"
      }
    }
    ret {
      key: "identity"
      value: "Identity:output:0"
    }
    attr {
      key: "_input_shapes"
      value {
        list {
          shape {
          }
          shape {
            dim {
              size: -1
            }
            dim {
              size: 1
            }
          }
        }
      }
    }
  }
  function {
    signature {
      name: "dnn_zero_fraction_cond_false_10053"
      input_arg {
        name: "count_nonzero_notequal_dnn_hiddenlayer_0_relu"
        type: DT_FLOAT
      }
      output_arg {
        name: "count_nonzero_nonzero_count"
        type: DT_INT64
      }
      output_arg {
        name: "optionalfromvalue"
        type: DT_VARIANT
      }
      output_arg {
        name: "optionalfromvalue_1"
        type: DT_VARIANT
      }
      output_arg {
        name: "optionalfromvalue_2"
        type: DT_VARIANT
      }
      output_arg {
        name: "optionalfromvalue_3"
        type: DT_VARIANT
      }
      output_arg {
        name: "optionalnone"
        type: DT_VARIANT
      }
    }
    node_def {
      name: "count_nonzero/zeros"
      op: "Const"
      attr {
        key: "_output_shapes"
        value {
          list {
            shape {
            }
          }
        }
      }
      attr {
        key: "dtype"
        value {
          type: DT_FLOAT
        }
      }
      attr {
        key: "value"
        value {
          tensor {
            dtype: DT_FLOAT
            tensor_shape {
            }
            float_val: 0.0
          }
        }
      }
      experimental_debug_info {
        original_node_names: "count_nonzero/zeros"
      }
    }
    node_def {
      name: "count_nonzero/NotEqual"
      op: "NotEqual"
      input: "count_nonzero_notequal_dnn_hiddenlayer_0_relu"
      input: "count_nonzero/zeros:output:0"
      attr {
        key: "T"
        value {
          type: DT_FLOAT
        }
      }
      attr {
        key: "_output_shapes"
        value {
          list {
            shape {
              dim {
                size: -1
              }
              dim {
                size: 128
              }
            }
          }
        }
      }
      attr {
        key: "incompatible_shape_error"
        value {
          b: true
        }
      }
      experimental_debug_info {
        original_node_names: "count_nonzero/NotEqual"
      }
    }
    node_def {
      name: "count_nonzero/Cast"
      op: "Cast"
      input: "count_nonzero/NotEqual:z:0"
      attr {
        key: "DstT"
        value {
          type: DT_INT64
        }
      }
      attr {
        key: "SrcT"
        value {
          type: DT_BOOL
        }
      }
      attr {
        key: "Truncate"
        value {
          b: false
        }
      }
      attr {
        key: "_output_shapes"
        value {
          list {
            shape {
              dim {
                size: -1
              }
              dim {
                size: 128
              }
            }
          }
        }
      }
      experimental_debug_info {
        original_node_names: "count_nonzero/Cast"
      }
    }
    node_def {
      name: "count_nonzero/Const"
      op: "Const"
      attr {
        key: "_output_shapes"
        value {
          list {
            shape {
              dim {
                size: 2
              }
            }
          }
        }
      }
      attr {
        key: "dtype"
        value {
          type: DT_INT32
        }
      }
      attr {
        key: "value"
        value {
          tensor {
            dtype: DT_INT32
            tensor_shape {
              dim {
                size: 2
              }
            }
            tensor_content: "\000\000\000\000\001\000\000\000"
          }
        }
      }
      experimental_debug_info {
        original_node_names: "count_nonzero/Const"
      }
    }
    node_def {
      name: "count_nonzero/nonzero_count"
      op: "Sum"
      input: "count_nonzero/Cast:y:0"
      input: "count_nonzero/Const:output:0"
      attr {
        key: "T"
        value {
          type: DT_INT64
        }
      }
      attr {
        key: "Tidx"
        value {
          type: DT_INT32
        }
      }
      attr {
        key: "_output_shapes"
        value {
          list {
            shape {
            }
          }
        }
      }
      attr {
        key: "keep_dims"
        value {
          b: false
        }
      }
      experimental_debug_info {
        original_node_names: "count_nonzero/nonzero_count"
      }
    }
    node_def {
      name: "OptionalFromValue"
      op: "OptionalFromValue"
      input: "count_nonzero/zeros:output:0"
      attr {
        key: "Toutput_types"
        value {
          list {
            type: DT_FLOAT
          }
        }
      }
      attr {
        key: "_output_shapes"
        value {
          list {
            shape {
            }
          }
        }
      }
      experimental_debug_info {
        original_node_names: "OptionalFromValue"
      }
    }
    node_def {
      name: "OptionalFromValue_1"
      op: "OptionalFromValue"
      input: "count_nonzero/NotEqual:z:0"
      attr {
        key: "Toutput_types"
        value {
          list {
            type: DT_BOOL
          }
        }
      }
      attr {
        key: "_output_shapes"
        value {
          list {
            shape {
            }
          }
        }
      }
      experimental_debug_info {
        original_node_names: "OptionalFromValue_1"
      }
    }
    node_def {
      name: "OptionalFromValue_2"
      op: "OptionalFromValue"
      input: "count_nonzero/Cast:y:0"
      attr {
        key: "Toutput_types"
        value {
          list {
            type: DT_INT64
          }
        }
      }
      attr {
        key: "_output_shapes"
        value {
          list {
            shape {
            }
          }
        }
      }
      experimental_debug_info {
        original_node_names: "OptionalFromValue_2"
      }
    }
    node_def {
      name: "OptionalFromValue_3"
      op: "OptionalFromValue"
      input: "count_nonzero/Const:output:0"
      attr {
        key: "Toutput_types"
        value {
          list {
            type: DT_INT32
          }
        }
      }
      attr {
        key: "_output_shapes"
        value {
          list {
            shape {
            }
          }
        }
      }
      experimental_debug_info {
        original_node_names: "OptionalFromValue_3"
      }
    }
    node_def {
      name: "OptionalNone"
      op: "OptionalNone"
      attr {
        key: "_output_shapes"
        value {
          list {
            shape {
            }
          }
        }
      }
      experimental_debug_info {
        original_node_names: "OptionalNone"
      }
    }
    ret {
      key: "count_nonzero_nonzero_count"
      value: "count_nonzero/nonzero_count:output:0"
    }
    ret {
      key: "optionalfromvalue"
      value: "OptionalFromValue:optional:0"
    }
    ret {
      key: "optionalfromvalue_1"
      value: "OptionalFromValue_1:optional:0"
    }
    ret {
      key: "optionalfromvalue_2"
      value: "OptionalFromValue_2:optional:0"
    }
    ret {
      key: "optionalfromvalue_3"
      value: "OptionalFromValue_3:optional:0"
    }
    ret {
      key: "optionalnone"
      value: "OptionalNone:optional:0"
    }
    attr {
      key: "_input_shapes"
      value {
        list {
          shape {
            dim {
              size: -1
            }
            dim {
              size: 128
            }
          }
        }
      }
    }
  }
  function {
    signature {
      name: "dnn_zero_fraction_cond_true_10052"
      input_arg {
        name: "count_nonzero_notequal_dnn_hiddenlayer_0_relu"
        type: DT_FLOAT
      }
      output_arg {
        name: "cast"
        type: DT_INT64
      }
      output_arg {
        name: "optionalfromvalue"
        type: DT_VARIANT
      }
      output_arg {
        name: "optionalfromvalue_1"
        type: DT_VARIANT
      }
      output_arg {
        name: "optionalfromvalue_2"
        type: DT_VARIANT
      }
      output_arg {
        name: "optionalfromvalue_3"
        type: DT_VARIANT
      }
      output_arg {
        name: "optionalfromvalue_4"
        type: DT_VARIANT
      }
    }
    node_def {
      name: "count_nonzero/zeros"
      op: "Const"
      attr {
        key: "_output_shapes"
        value {
          list {
            shape {
            }
          }
        }
      }
      attr {
        key: "dtype"
        value {
          type: DT_FLOAT
        }
      }
      attr {
        key: "value"
        value {
          tensor {
            dtype: DT_FLOAT
            tensor_shape {
            }
            float_val: 0.0
          }
        }
      }
      experimental_debug_info {
        original_node_names: "count_nonzero/zeros"
      }
    }
    node_def {
      name: "count_nonzero/NotEqual"
      op: "NotEqual"
      input: "count_nonzero_notequal_dnn_hiddenlayer_0_relu"
      input: "count_nonzero/zeros:output:0"
      attr {
        key: "T"
        value {
          type: DT_FLOAT
        }
      }
      attr {
        key: "_output_shapes"
        value {
          list {
            shape {
              dim {
                size: -1
              }
              dim {
                size: 128
              }
            }
          }
        }
      }
      attr {
        key: "incompatible_shape_error"
        value {
          b: true
        }
      }
      experimental_debug_info {
        original_node_names: "count_nonzero/NotEqual"
      }
    }
    node_def {
      name: "count_nonzero/Cast"
      op: "Cast"
      input: "count_nonzero/NotEqual:z:0"
      attr {
        key: "DstT"
        value {
          type: DT_INT32
        }
      }
      attr {
        key: "SrcT"
        value {
          type: DT_BOOL
        }
      }
      attr {
        key: "Truncate"
        value {
          b: false
        }
      }
      attr {
        key: "_output_shapes"
        value {
          list {
            shape {
              dim {
                size: -1
              }
              dim {
                size: 128
              }
            }
          }
        }
      }
      experimental_debug_info {
        original_node_names: "count_nonzero/Cast"
      }
    }
    node_def {
      name: "count_nonzero/Const"
      op: "Const"
      attr {
        key: "_output_shapes"
        value {
          list {
            shape {
              dim {
                size: 2
              }
            }
          }
        }
      }
      attr {
        key: "dtype"
        value {
          type: DT_INT32
        }
      }
      attr {
        key: "value"
        value {
          tensor {
            dtype: DT_INT32
            tensor_shape {
              dim {
                size: 2
              }
            }
            tensor_content: "\000\000\000\000\001\000\000\000"
          }
        }
      }
      experimental_debug_info {
        original_node_names: "count_nonzero/Const"
      }
    }
    node_def {
      name: "count_nonzero/nonzero_count"
      op: "Sum"
      input: "count_nonzero/Cast:y:0"
      input: "count_nonzero/Const:output:0"
      attr {
        key: "T"
        value {
          type: DT_INT32
        }
      }
      attr {
        key: "Tidx"
        value {
          type: DT_INT32
        }
      }
      attr {
        key: "_output_shapes"
        value {
          list {
            shape {
            }
          }
        }
      }
      attr {
        key: "keep_dims"
        value {
          b: false
        }
      }
      experimental_debug_info {
        original_node_names: "count_nonzero/nonzero_count"
      }
    }
    node_def {
      name: "Cast"
      op: "Cast"
      input: "count_nonzero/nonzero_count:output:0"
      attr {
        key: "DstT"
        value {
          type: DT_INT64
        }
      }
      attr {
        key: "SrcT"
        value {
          type: DT_INT32
        }
      }
      attr {
        key: "Truncate"
        value {
          b: false
        }
      }
      attr {
        key: "_output_shapes"
        value {
          list {
            shape {
            }
          }
        }
      }
      experimental_debug_info {
        original_node_names: "Cast"
      }
    }
    node_def {
      name: "OptionalFromValue"
      op: "OptionalFromValue"
      input: "count_nonzero/zeros:output:0"
      attr {
        key: "Toutput_types"
        value {
          list {
            type: DT_FLOAT
          }
        }
      }
      attr {
        key: "_output_shapes"
        value {
          list {
            shape {
            }
          }
        }
      }
      experimental_debug_info {
        original_node_names: "OptionalFromValue"
      }
    }
    node_def {
      name: "OptionalFromValue_1"
      op: "OptionalFromValue"
      input: "count_nonzero/NotEqual:z:0"
      attr {
        key: "Toutput_types"
        value {
          list {
            type: DT_BOOL
          }
        }
      }
      attr {
        key: "_output_shapes"
        value {
          list {
            shape {
            }
          }
        }
      }
      experimental_debug_info {
        original_node_names: "OptionalFromValue_1"
      }
    }
    node_def {
      name: "OptionalFromValue_2"
      op: "OptionalFromValue"
      input: "count_nonzero/Cast:y:0"
      attr {
        key: "Toutput_types"
        value {
          list {
            type: DT_INT32
          }
        }
      }
      attr {
        key: "_output_shapes"
        value {
          list {
            shape {
            }
          }
        }
      }
      experimental_debug_info {
        original_node_names: "OptionalFromValue_2"
      }
    }
    node_def {
      name: "OptionalFromValue_3"
      op: "OptionalFromValue"
      input: "count_nonzero/Const:output:0"
      attr {
        key: "Toutput_types"
        value {
          list {
            type: DT_INT32
          }
        }
      }
      attr {
        key: "_output_shapes"
        value {
          list {
            shape {
            }
          }
        }
      }
      experimental_debug_info {
        original_node_names: "OptionalFromValue_3"
      }
    }
    node_def {
      name: "OptionalFromValue_4"
      op: "OptionalFromValue"
      input: "count_nonzero/nonzero_count:output:0"
      attr {
        key: "Toutput_types"
        value {
          list {
            type: DT_INT32
          }
        }
      }
      attr {
        key: "_output_shapes"
        value {
          list {
            shape {
            }
          }
        }
      }
      experimental_debug_info {
        original_node_names: "OptionalFromValue_4"
      }
    }
    ret {
      key: "cast"
      value: "Cast:y:0"
    }
    ret {
      key: "optionalfromvalue"
      value: "OptionalFromValue:optional:0"
    }
    ret {
      key: "optionalfromvalue_1"
      value: "OptionalFromValue_1:optional:0"
    }
    ret {
      key: "optionalfromvalue_2"
      value: "OptionalFromValue_2:optional:0"
    }
    ret {
      key: "optionalfromvalue_3"
      value: "OptionalFromValue_3:optional:0"
    }
    ret {
      key: "optionalfromvalue_4"
      value: "OptionalFromValue_4:optional:0"
    }
    attr {
      key: "_input_shapes"
      value {
        list {
          shape {
            dim {
              size: -1
            }
            dim {
              size: 128
            }
          }
        }
      }
    }
  }
}
versions {
  producer: 175
  min_consumer: 12
}
